models/fashion_mnist.pth (torch, 441220 bytes, 6 tensors)

weight f4 [128, 784]
000000 21 be 95 bc 63 22 25 3c 4a 3b c0 3c 51 9c 8b 3b
       -0.018279137 0.010078999 0.023465771 0.0042605777
000010 e7 84 a7 ba aa e1 0e bd 36 2a f3 bc 7e 8a cc bc
       -0.0012780697 -0.03488318 -0.029683214 -0.024968382
000020 96 ce ac bd d0 2a 6d bd dd 67 cb bd e7 61 d7 bd
       -0.08437841 -0.057902157 -0.0993192 -0.1051672
000030 8a a2 86 bc b0 e5 c6 3d 3f 7e ae 3d e7 cb 9c 3d
       -0.016434927 0.09711778 0.08520173 0.07656079
000040 f9 30 69 bc 60 1b ba bd 08 dc f1 bd ce cc aa bd
       -0.014232867 -0.090872526 -0.11809546 -0.08339845
000050 17 05 a9 bd 23 c1 28 bd 7a a0 4b bd 80 c7 40 3c
       -0.08252924 -0.041199815 -0.04971359 0.0117663145
000060 65 ce 7d 3c 40 86 52 3c 5c 1e 5f 3c 74 79 c1 bc
       0.015491103 0.0128493905 0.013618078 -0.023617484
000070 07 08 e8 bc 80 1a 2b 39 20 99 4c 3c 3d b5 3b 3b
       -0.02832414 0.00016317703 0.01248768 0.0028641962
000080 4d b9 0c bc 05 f0 81 3c e1 66 60 bb 9f 31 7e bd
       -0.008589101 0.01586152 -0.0034241008 -0.06205904
000090 08 90 f2 bd 43 47 71 3c a3 4a f5 bc 6e 38 2f bd
       -0.11843878 0.014726463 -0.029942816 -0.042778425
0000a0 30 a3 2e 3d 03 f8 35 3d 7e a4 7c 3d 18 30 0e 3d
       0.042636096 0.044425976 0.06168031 0.034713835
0000b0 f0 b6 18 bd 4f fd f0 3a 9d 3b d5 3b 2e e8 b7 bd
       -0.037283838 0.0018386039 0.0065073506 -0.08979832
0000c0 05 7c a7 bd c1 68 a8 bc b6 c7 fe bc ea 02 60 bd
       -0.08177952 -0.020557763 -0.031101089 -0.05469028
0000d0 83 0c b7 bc 70 03 58 3b 0e 4a b5 bc 2a 94 60 3c
       -0.022344833 0.0032961033 -0.022130039 0.0137072
0000e0 ae 1e cf 3c a9 b9 42 3c ab 47 7d bc c5 42 dd 3c
       0.025283184 0.011885085 -0.0154589815 0.027009377
0000f0 e0 62 94 bc 46 c1 81 bd 81 36 b9 bc 31 a9 d1 bd
       -0.018113554 -0.06335692 -0.022608997 -0.10237349
000100 a2 fd 84 bd b7 a0 93 bd f4 d6 a9 bd 5c bd 67 bd
       -0.06493689 -0.07208388 -0.08292952 -0.05657707
000110 ce 75 1d 3c 31 26 2b 3d 1c 9d 13 3b be d4 d2 3b
       0.009610606 0.04178447 0.0022524064 0.0064340523
000120 eb 03 f9 ba c1 52 68 bd fd e9 79 bd 1f e9 70 bd
       -0.001899836 -0.056719545 -0.061014164 -0.05881607
000130 bb 71 90 bd 61 d3 b4 bd 4e 81 a1 bd b1 d9 b0 ba
       -0.07052942 -0.0882938 -0.07885991 -0.0013492611
000140 b7 71 51 bd 50 ec 4c 3c 2c 9f 3f bc 2e cd cf bc
       -0.051133838 0.012507513 -0.011695664 -0.025366392
000150 a1 1c 4a 3c e2 26 7a bc ae 49 91 3c a3 c0 3d 3c
       0.012335927 -0.015268059 0.017735329 0.011581573
000160 69 02 8d 3c d1 32 08 bd 77 7f b1 bd eb 03 17 bd
       0.017213063 -0.033251587 -0.0866689 -0.03686897
000170 51 77 ca bd 67 5d 3c bd c1 16 5d bd c7 bf 43 bc
       -0.09886039 -0.045987513 -0.053976778 -0.011947579
000180 73 2c 87 bc a0 01 83 3a 62 13 58 3c 4f f3 32 3d
       -0.016500687 0.0009994991 0.013188215 0.04368907
000190 c3 9c bd 3c dd 98 55 bd 58 db 5a ba f1 02 da bd
       0.023146039 -0.052147735 -0.0008348725 -0.10645092
0001a0 26 84 da bd 6f 95 af bd 18 68 8d bd b7 24 a8 bd
       -0.106697366 -0.08573424 -0.0690462 -0.08210128
0001b0 79 f6 23 bc 15 1c 38 3c 42 62 33 3d b6 e0 0f 3d
       -0.010007494 0.011237164 0.043794878 0.03512641
0001c0 40 11 93 3a 43 5b 3c 3d 67 5f 86 bc ae cb 4c 3c
       0.0011220351 0.04598547 -0.016402913 0.012499733
0001d0 83 54 00 3d 42 f2 c8 ba 75 42 78 bd 92 09 8e bd
       0.031330597 -0.0015330988 -0.060610253 -0.06935419
0001e0 72 a2 c3 bc bb 85 99 bc 2d 2c f5 3b d8 7f 86 3b
       -0.02388117 -0.018740525 0.007482073 0.0041045956
0001f0 f3 e9 19 bd b0 d3 15 3d e0 c6 01 bc 1a 3c 2c 3d
       -0.037576627 0.036578834 -0.007920951 0.042049505
000200 f5 a0 37 3d cd 41 2a bc 74 3d ec 3b a4 29 1e 3b
       0.044831235 -0.010391665 0.007209474 0.0024133706
000210 2f 69 17 bd 29 80 ac bc 73 6e 5c bd 1e ec 74 bd
       -0.036965545 -0.021057205 -0.05381627 -0.05979549
000220 83 56 21 bc d5 8c 38 bd 24 7a 39 3d e8 f3 a0 bc
       -0.009847286 -0.045056183 0.045282498 -0.019647554
000230 10 b1 24 bc 3f 91 38 3d 3f c3 f8 bb 6f 79 48 bc
       -0.010051981 0.045060392 -0.0075916345 -0.012235983
000240 ae 1c 15 bc a8 59 77 3c fa 7c 20 bd 78 36 54 bd
       -0.009101076 0.015097059 -0.039181687 -0.051809758
000250 21 91 32 bd fb fd 43 bd c1 88 11 3d c7 cc 8d bc
       -0.043595437 -0.047849637 0.03553081 -0.01730956
000260 01 74 b1 3b b2 28 d7 3c 21 a9 66 bd 61 3d 3e 3d
       0.00541544 0.026264522 -0.056313638 0.046445254
000270 ed 2f b3 3c f8 e1 1a bc 41 91 8a bb a0 0d 70 bd
       0.021873439 -0.009453289 -0.0042287414 -0.058606744
000280 bd 23 b3 bd 60 b7 10 bd de 45 98 bd 0f 16 66 3b
       -0.08747051 -0.03533113 -0.07435201 0.0035108363
000290 e9 39 81 bd 90 09 fd 3a c4 9d 9b 3c 3d a6 5a 3d
       -0.063098736 0.0019305218 0.018996127 0.053381193
0002a0 4c 24 97 3c f1 84 6f 3c e5 2c cc 3a 20 d0 a8 3c
       0.018449925 0.014619098 0.0015577344 0.020607054
0002b0 76 e4 63 3c 14 fd c7 3b fd c9 e4 3b 50 82 b7 bc
       0.01390945 0.0061031673 0.0069820867 -0.022401005
0002c0 4e c4 6b bd 09 56 be bc b9 af 07 ba 02 41 a7 bc
       -0.057560258 -0.023234384 -0.0005176026 -0.02041674
0002d0 2f 3c 0c bd bd 4f 88 bd 81 d6 af bd 31 d5 de bd
       -0.034237083 -0.06655834 -0.08585835 -0.10880507
0002e0 4c e3 9f 3c ea 7a 58 3d 8b 2c c3 3d 3a 6e 36 3d
       0.019517563 0.052851595 0.0952998 0.044538714
0002f0 ac 76 fa bc 00 8e 86 bd fb 8c 98 bc d6 81 0c bd
       -0.030574165 -0.06570053 -0.018621912 -0.03430351
000300 6c 4b ea bc d6 e5 d8 bd 04 e1 c2 bb 3d 96 b1 3a
       -0.028600417 -0.10590713 -0.005947234 0.0013548803
000310 44 71 44 bc b9 4a 5f 3c 0a f4 a7 bb 72 b3 33 3c
       -0.011989895 0.013628655 -0.0051255273 0.010968076
000320 7e cd bc 3c dc 2d 42 3b 41 1c e4 3b 19 6c 29 bd
       0.023047205 0.0029629385 0.006961376 -0.041362856
000330 90 4b e1 bc cc 39 ff bc 68 d9 96 3d 8a 17 22 3c
       -0.027501851 -0.03115549 0.07365686 0.009893307
000340 d2 19 4b 3c df fd 2e bd 93 f2 25 be fb 67 ab bd
       0.012396293 -0.04272258 -0.16205816 -0.08369442
000350 2e ff d5 bc 1d f2 a8 3c de 00 11 3e 1d 80 eb 3c
       -0.026122656 0.020623261 0.14160487 0.028747613
000360 fc 99 d9 bd e8 b8 ef bd c4 e0 71 bd 5a f5 e2 bc
       -0.10625073 -0.1170519 -0.059052244 -0.027704883
000370 ca d2 a3 bd f6 aa 16 be 83 33 14 bd 66 65 a3 bc
       -0.07999189 -0.14713654 -0.036181938 -0.019945811
000380 54 f8 46 3d 84 ec 5b 3c 87 08 66 3c 2d b0 ec 3b
       0.048576668 0.013423089 0.014040119 0.00722315
000390 7d 7e c9 ba 53 65 c7 3b 32 8f db 3c 2b ad 89 bd
       -0.001537278 0.006085077 0.02680168 -0.06722482
0003a0 ae cf bb bd ab 0a cc 3c 6f ec ad bc 09 b4 3d bd
       -0.09170471 0.02490743 -0.021230904 -0.046314273
0003b0 30 54 4e bd 8b a7 ee bd 34 66 c9 bd 50 8b 04 be
       -0.050373256 -0.1165305 -0.09833947 -0.12943769
0003c0 7e ff 18 3d de df 13 bc d3 9c bb 3d d3 b6 80 bd
       0.03735303 -0.009025542 0.09160771 -0.06284871
0003d0 b2 8d 40 be 51 48 c0 bd cf e0 66 bd 89 77 3c bc
       -0.18804052 -0.09388793 -0.056366738 -0.011503109
0003e0 1e bc dc bc 98 b9 cf bd f6 34 20 bd 2a 6b 19 3c
       -0.02694517 -0.10142821 -0.039113007 0.009363929
0003f0 ea 02 9c 3c 19 4c 28 3d 54 b0 a4 bc 75 3c 89 3c
       0.019044358 0.041088197 -0.020103611 0.016752461

bias f4 [128]
000000 78 f0 cc 3c 12 6e 17 bd 17 0f 11 bd 32 3f 8a 3c
       0.025017008 -0.036970206 -0.03541478 0.016875837
000010 68 5c ad 3d 06 3a 24 3d 98 dd a7 bc f3 2e 99 bc
       0.08464891 0.040094398 -0.020491406 -0.018699145
000020 8a 5f 8a 3c 49 79 6b bd 1a 32 f0 3a 26 81 1d bd
       0.01689126 -0.057488713 0.0018325478 -0.038453244
000030 ea b4 23 bb 4a 36 6b 3d 2f 82 66 3d cf c1 a9 3b
       -0.002497966 0.05742482 0.056276496 0.0051805745
000040 5e 61 1a bd 6b 2b b9 3c b5 27 01 bd 0b 05 c7 3c
       -0.037690513 0.022603711 -0.03153201 0.024294397
000050 65 8b 92 3b 43 9b 01 3a 15 3d e7 3b ca cf 36 3d
       0.0044721835 0.0004944095 0.007056842 0.044631757
000060 d8 5a ab bd 1b e4 82 bc 0b a2 b1 bd c8 6f 17 3d
       -0.083669364 -0.01597791 -0.08673485 0.036971837
000070 22 d2 24 bd bf 8a 09 bd 9f 3a 01 3b f4 91 72 3c
       -0.04023946 -0.033579584 0.0019718779 0.014805306
000080 75 4b 5b bc fc 55 de bc 09 e4 ac bc 6c 2e 46 bd
       -0.01338469 -0.02714061 -0.02110483 -0.048384115
000090 8d 17 7f 3c c9 eb 2b bd 90 1f 09 bd 0e 6c ba bc
       0.01556958 -0.04197291 -0.033477366 -0.022756603
0000a0 c2 12 f4 3b ca 57 51 bc 40 81 57 bd f6 ae 30 3c
       0.007448525 -0.012777278 -0.052613497 0.010783901
0000b0 45 bf da 3c 85 f9 15 3d c7 04 14 bd f8 bf 2b bc
       0.026702533 0.036614913 -0.03613737 -0.010482781
0000c0 0f e1 fb bc 86 43 b7 bb 57 75 74 3c 6f 86 59 bc
       -0.030746965 -0.005592766 0.014920554 -0.01327668
0000d0 7b d1 42 3b 02 8b d4 3d d8 ee 6b 3c 78 bc 28 bd
       0.002972691 0.10378076 0.0144002065 -0.041195363
0000e0 9c 07 39 bd 87 58 fc bc 03 86 80 3c 87 ce c7 bc
       -0.045173272 -0.030803932 0.015688902 -0.024390472
0000f0 c6 9d fa bc d5 da 13 bc ee 6d 91 bc 34 19 8a bd
       -0.03059281 -0.009024342 -0.017752614 -0.06743088
000100 0c a6 03 3d 5a 03 fe 3b 2d e7 3a bd 30 1e 8a 3c
       0.032140777 0.0077518644 -0.045630623 0.016860098
000110 b0 22 02 3d 29 7c 12 bd 38 84 fb ba f7 dd ce 3c
       0.03177136 -0.03576294 -0.0019189185 0.025252325
000120 ce 70 86 bd 04 1a 46 bd 58 eb 34 bc 12 b1 15 3d
       -0.065644845 -0.048364654 -0.011042438 0.03654582
000130 28 ff 39 bd 52 15 b6 bb e7 8b 05 bc 8e 83 e4 bc
       -0.04540935 -0.005556741 -0.008151031 -0.027894761
000140 8e be 90 bd fe 5b 05 3d 05 c4 c8 bb e5 6c d9 bc
       -0.070675954 0.032558434 -0.006126883 -0.026541183
000150 98 2e a3 bc c6 34 09 3c 64 c6 e6 3b 33 45 4b 3c
       -0.019919679 0.008374399 0.007042693 0.012406635
000160 07 aa a6 bc 01 e6 27 3b 24 3b ed bc 30 b0 8a bc
       -0.020344747 0.002561927 -0.028958865 -0.016929716
000170 d2 59 e2 bc cd 6d 1d bd 3e 6b 00 3c 05 30 1f bd
       -0.02763072 -0.038434792 0.0078380685 -0.038864154
000180 30 c6 e6 bc 42 fe ca bc ca 86 98 bd 34 e3 ef bb
       -0.028170675 -0.024779443 -0.07447584 -0.007320786
000190 6a 89 8a bb f3 95 db bc 97 76 0b bc 1e 52 37 39
       -0.004227807 -0.0268049 -0.008512161 0.00017482831
0001a0 55 a8 09 bd 02 87 23 bc b0 5d 3d 3c dd cb 63 bd
       -0.0336078 -0.009980919 0.011557981 -0.05561434
0001b0 7a 99 08 bd b4 85 b6 bb c3 d9 a9 bc 6a 63 45 bd
       -0.03334949 -0.005570138 -0.02073372 -0.04819051
0001c0 00 90 11 3d 29 88 15 bc 25 28 49 bd f6 05 6c bd
       0.03553772 -0.009126701 -0.04911055 -0.057622872
0001d0 33 c2 22 bc 2e 95 b0 39 80 3d f6 bc 1a 8a ad 3c
       -0.009933996 0.00033680483 -0.030058622 0.021184016
0001e0 4a e7 6c bc 6a 71 66 bd 0f dd 2e bd 6f ac 8a 3b
       -0.0144594405 -0.056260504 -0.042691287 0.0042319815
0001f0 3c 4c 26 bd 71 49 8d bd 68 61 9d bc 82 90 52 bc
       -0.040600047 -0.068987735 -0.019211486 -0.012851836

weight f4 [64, 128]
000000 56 f5 dc bd c7 52 73 3c df 01 ef bb ff ae 12 3e
       -0.107889816 0.014851279 -0.007293924 0.14324568
000010 ca 61 68 3d ec 66 db 3d 71 5f 13 bc 09 33 e3 3d
       0.056733884 0.1071299 -0.008994923 0.110937186
000020 13 8d af 3d de 3f fb 3c 1d 3f 98 bd ce db 63 3d
       0.0857183 0.030670103 -0.07433913 0.055629544
000030 0c 1d 27 3d c1 78 c5 3d 7e dc ca 3d a6 f4 0a 3e
       0.040799186 0.096421726 0.09905337 0.13569888
000040 cd 08 e1 bd 43 66 05 3b fd 23 20 bd 2a d0 69 3d
       -0.10988007 0.0020355142 -0.03909682 0.057083286
000050 20 15 17 3c 92 71 91 bd a4 9e 66 bd 1b 3b 84 be
       0.009221345 -0.0710174 -0.056303635 -0.25826344
000060 c0 1e 83 3d c5 ab 8f 3d 0d e9 7f bd 5c 69 21 bd
       0.064023495 0.07015184 -0.062478114 -0.03940712
000070 26 92 2c 3d 69 5e ba 3e ff a7 8e bd f1 8b 2b 3d
       0.042131566 0.36400154 -0.069656365 0.041881505
000080 67 c0 39 3d d1 fc 74 bd c6 43 e7 bd b8 aa 33 3d
       0.045349505 -0.059811417 -0.11292224 0.043863982
000090 6f f6 a9 bb db f9 ae 3d ad 15 4b 3c 6e a2 46 bd
       -0.005186848 0.0854375 0.012395305 -0.04849475
0000a0 f9 a1 7a 3d 04 7a 7b be 13 2b fe 3d 95 b6 cc bc
       0.061189625 -0.24558264 0.124105595 -0.024989406
0000b0 a4 7a cc 3c 95 80 bd bd 01 2f 9b 3d df c4 46 3d
       0.024960823 -0.09253041 0.07577325 0.048527595
0000c0 ea 9e 75 bd 99 fe 88 3d 9a 7c 22 bc 51 ba e5 bc
       -0.059966005 0.06689186 -0.009917403 -0.028042944
0000d0 84 79 56 3c ae da e5 3b 81 a6 89 be 1f 65 d0 3d
       0.013090495 0.007014594 -0.26884845 0.10175537
0000e0 de ec d8 bd 23 0a 51 3c 4c a7 9b bc e9 f1 4e bc
       -0.10592054 0.012758764 -0.019000672 -0.012630918
0000f0 7e 00 49 3c 80 b7 aa bd 27 31 91 3c dd 71 16 be
       0.012268184 -0.08335781 0.017723633 -0.14691873
000100 77 01 6f bd aa ba 9d 3d 13 a2 6a bc c3 71 18 bd
       -0.058351006 0.07701619 -0.014320868 -0.037217867
000110 79 9d 72 bb f5 c0 c9 3d b4 f2 2f bd 43 eb cc bb
       -0.003702013 0.09851257 -0.04295607 -0.0062536313
000120 2e 38 b7 3d fa 04 d0 bd c2 1a 3b 3d a6 aa af bd
       0.08946262 -0.10157199 0.045679815 -0.085774705
000130 78 35 b6 3d 51 d2 c2 bd 2d ff 66 3d 90 4f 0f bc
       0.08896917 -0.09512771 0.0563957 -0.0087469965
000140 0c 3e 83 3d ae d5 b5 3a cc 33 69 bd d5 a2 c4 bd
       0.06408319 0.0013872886 -0.056934163 -0.0960137
000150 e1 7b 16 3d 96 75 0c 3b 29 bb 01 3d da 2b f3 bd
       0.036739234 0.0021432391 0.03167263 -0.118735984
000160 0b 17 50 3d cb 9e 0c 3e eb 62 eb bd 47 7a 72 b9
       0.050803225 0.1373245 -0.114934765 -0.0002312447
000170 1f 99 5f 3d 33 b2 2c 3d 05 dd dd bc 3e 47 b0 bd
       0.054589387 0.04216213 -0.02708293 -0.08607338
000180 8a 90 44 bb 0e 6e cc bc bc 96 be 3c 99 17 ad bd
       -0.0029993379 -0.024954822 0.023265235 -0.084517665
000190 d1 ee a6 3d cf b5 56 3d 7f 25 a8 3d 20 0d 70 3d
       0.08151019 0.05241948 0.08210277 0.058606267
0001a0 46 20 22 3d 15 16 17 ba ea a2 3b 3e e6 ed 10 3e
       0.03958156 -0.00057634834 0.18323866 0.14153251
0001b0 36 f4 c3 3d b0 5a 4b bd 22 03 2a bc ad 6e 53 bd
       0.09568064 -0.049647033 -0.0103767235 -0.05161922
0001c0 70 dc 60 be 45 75 af 3b 86 4c 61 be 38 b7 d3 3c
       -0.2195909 0.005354556 -0.22001848 0.025844201
0001d0 71 3b 74 3c 53 96 35 3c dc d8 33 3e c8 2d f4 3c
       0.01490675 0.011083203 0.17563194 0.029806986
0001e0 3e 6a 94 bd 24 d5 1f be d4 68 09 3e c6 0c 55 bd
       -0.072468266 -0.1560865 0.13418895 -0.052014135
0001f0 48 94 16 be 2f 17 91 3c 2c 06 83 bd ec 32 b0 bd
       -0.14705002 0.01771125 -0.063976616 -0.086034626
000200 88 7d 3f 3c e2 07 9a bc 7c 18 b4 3c 23 c2 b5 3d
       0.011687644 -0.018802587 0.021984331 0.08874919
000210 da e9 ae 3d 85 09 2d bd ea 0a 8f 3d b0 2e 0d 3e
       0.085406974 -0.042245407 0.069845036 0.13787341
000220 4b 82 81 3d f6 91 62 3a c4 2b 64 bd 60 4c 89 3d
       0.063236795 0.00086429657 -0.0557058 0.067040205
000230 fc 19 e1 bd 5f 13 a7 bc ae 4d 1d 3e 58 24 21 3d
       -0.10991284 -0.020394979 0.15361664 0.0393413
000240 d3 32 26 3d bb 2e 4d 3c 07 1d 45 bd d9 be ac bc
       0.040575814 0.012523348 -0.048123386 -0.021087097
000250 c7 b8 b3 bc d4 65 f3 bc 66 a6 d8 3d 09 93 92 bc
       -0.021938695 -0.029711641 0.10578613 -0.017892377
000260 1c 7a c8 3c 3e 78 5f 3d 9a 23 9f 3d b3 a5 96 3c
       0.024472289 0.05455803 0.07770462 0.018389558
000270 72 b9 e5 b9 ca 22 86 3c a0 2f cf 3a 9f 0a eb bd
       -0.0004381645 0.01637401 0.001580704 -0.11476635
000280 5d 10 94 3d c0 81 5a bc 70 fb 9f 3d a6 b6 a8 3d
       0.072296835 -0.013336599 0.0781163 0.082379624
000290 4f 4b 19 3d e2 2e bd bd 83 21 26 bd 93 c3 ef 3d
       0.037425335 -0.09237458 -0.040559303 0.11707225
0002a0 11 b1 ef 3c 6b cf 15 3e a0 97 28 3d 74 2d 43 bd
       0.029259237 0.14629905 0.041160226 -0.04765077
0002b0 4b ad 94 3d 6f 55 d6 3d 91 fc 77 bd 75 f1 0d 3b
       0.072596155 0.10465514 -0.0605436 0.0021658812
0002c0 f1 71 0d 3e e0 4c 19 3c 3a 0e d9 bb 04 51 75 3d
       0.13812996 0.009356707 -0.0066240104 0.059891716
0002d0 e9 01 88 3d 11 90 50 be e5 d5 dd bc f0 e9 ea bd
       0.06640989 -0.20367457 -0.027079532 -0.11470401
0002e0 e5 99 f2 bd 01 29 19 3d fe 52 cf 3c 6b fa 62 3b
       -0.11845759 0.03739262 0.025308128 0.0034634124
0002f0 6d a7 10 3e 51 21 44 3d 95 a0 9b 3d 14 5d 32 bd
       0.14126368 0.047883336 0.07598988 -0.043545797
000300 16 e5 a1 bd 50 88 94 3d 20 04 b7 3c 5c 60 96 bd
       -0.07905023 0.07252562 0.022340834 -0.07342598
000310 70 e5 af 3b 5b 4a 79 bd 16 1e 0d 3d 4d 58 8e 3d
       0.0053679273 -0.060861927 0.03445252 0.06950436
000320 6a 20 4f bd 74 31 d6 3d 86 7f 84 bc 5e f0 88 3d
       -0.05056802 0.10458651 -0.01617409 0.066864714
000330 8b 92 ff bd a6 fa 55 be b5 00 d1 bd 93 b9 44 3e
       -0.12479123 -0.20896396 -0.10205213 0.19211416
000340 45 dc 08 be b3 e2 cb 3d 05 3f fd 3c e9 0b 01 3e
       -0.13365276 0.09955349 0.03091384 0.126022
000350 49 40 e3 3d e1 b3 2d 3d 6b 4d a6 b9 d2 03 41 bd
       0.11096246 0.042407874 -0.00031719668 -0.047122784
000360 ce f0 16 3e f4 8a 97 bd e4 86 01 3e 8f ec 35 3d
       0.14740297 -0.0739955 0.12649113 0.044415053
000370 ef b6 85 3d 69 a8 3e 3d 55 6e 58 3d 6c 1a c1 3d
       0.065290324 0.046547327 0.052839596 0.09428868
000380 0b 6a 0f be 2c d9 2d be 01 34 05 be 96 b5 a3 bc
       -0.14005296 -0.16977376 -0.13008119 -0.019984048
000390 ad eb f0 bd d0 72 a6 bd 9c 75 95 3d e9 5f 6c bd
       -0.117637016 -0.081273675 0.07297823 -0.057708655
0003a0 19 4a 98 3c d8 47 43 bd f3 37 cc bd 69 04 c0 bd
       0.01859002 -0.047675937 -0.09971609 -0.09375841
0003b0 f6 91 eb bd 1d fe 89 3d c1 71 73 3e 8b 48 a7 3c
       -0.11502449 0.067379214 0.23773862 0.020420333
0003c0 65 08 46 be 94 f4 12 bd 33 20 0e bd 8d 21 64 3d
       -0.1933914 -0.03587778 -0.034698676 0.05569606
0003d0 a3 b8 68 3c ba 66 99 bd 26 29 50 be 14 87 a2 3b
       0.014204177 -0.07490297 -0.20328197 0.00495995
0003e0 9a f4 09 be 09 a6 8e 3d 43 62 8e 3d 92 9a 40 3e
       -0.13472214 0.069652624 0.06952336 0.18808964
0003f0 3e af 09 3d a4 f8 9b bd db 5c f7 3d 46 c5 6c 3d
       0.03361439 -0.07615784 0.12078258 0.057805322

bias f4 [64]
000000 1b 65 71 3d d2 0e 67 bd f6 05 c8 3d b6 e4 be bc
       0.058934312 -0.056410618 0.09766762 -0.023302417
000010 ac 02 32 3e 30 c7 e8 3c 8a ba 93 bc 01 b0 a0 3d
       0.17383832 0.028415293 -0.018033285 0.0784607
000020 33 7b a5 bc a7 a6 4a bd 73 75 eb ba 00 de ff bd
       -0.020200348 -0.04947534 -0.001796408 -0.12493515
000030 e0 58 8b bd 23 9b 7f 3d a9 e1 26 bd a7 2a 73 bd
       -0.06804061 0.06240381 -0.04074255 -0.05936685
000040 c0 98 20 3d 39 c2 0a bd ff eb b9 3d cc a5 2b bd
       0.039208174 -0.03387663 0.09078216 -0.041906163
000050 47 1c c1 3d 84 f5 1b 3d 68 17 26 bd 27 e7 f8 bc
       0.094292216 0.03807594 -0.040549666 -0.03038366
000060 7d e7 a0 bd e2 4f 2f bd 4a 6f a9 bd a8 a0 4b bc
       -0.07856653 -0.04280079 -0.0827318 -0.01242844
000070 79 7d c7 3d d6 d8 41 3a 7e 1c d7 bd 57 64 bf bc
       0.09740729 0.0007394677 -0.10503481 -0.023363275
000080 3f 6f 92 bc 48 08 7b bd ae 84 33 bd 6b bc c9 bd
       -0.017875312 -0.061287194 -0.043827705 -0.09850391
000090 67 64 b0 3d 03 f5 8e 3b 86 6b f2 3a 4a 22 e9 bb
       0.086129 0.0043627038 0.0018495179 -0.0071146833
0000a0 8e 02 cd 3d 18 84 a6 bd 45 2d 82 bd 6b cc 13 3b
       0.10010253 -0.08130664 -0.06356291 0.0022552263
0000b0 a9 78 b8 3c 88 d0 d2 3d 3f 65 a9 bd 90 89 96 bd
       0.022518473 0.102936804 -0.08271264 -0.07350457
0000c0 4b 74 92 3d 57 a3 29 bc 34 ec be 3d 3e d9 3f 3d
       0.071510874 -0.010353885 0.09322396 0.046838038
0000d0 f6 60 52 3d f6 69 02 3d a0 1f 4e 3d f8 d4 ea 3d
       0.051362 0.031839333 0.05032313 0.11466402
0000e0 85 c0 f5 3d 34 5b 9d 3d 7a ce 09 be b0 92 00 3c
       0.11999611 0.07683411 -0.13457671 0.007847473
0000f0 66 b0 1c bc 1b c8 e0 3b 05 e1 a6 bb c4 15 07 be
       -0.009563541 0.006859792 -0.0050927424 -0.13191897

weight f4 [10, 64]
000000 0e 7f 4a be 93 c8 74 3b b9 f6 fb bd 9f da e3 bd
       -0.1977503 0.0037350997 -0.12302918 -0.11125683
000010 ea ee d5 bd d3 ea 69 be 70 8f 2a bd b1 fe 93 3d
       -0.1044596 -0.22843485 -0.0416407 0.07226313
000020 55 1a 35 3e 21 e6 63 be 51 da 4d bc b7 6a 2e 3d
       0.17685826 -0.22255756 -0.012564258 0.04258224
000030 92 99 56 3d ca 2e b2 3d 06 d4 af 3c 93 72 a3 3c
       0.05239255 0.087003306 0.021463405 0.019952094
000040 2f c3 0d be f6 06 62 be 15 a2 6f 3d 06 db 1a be
       -0.13843988 -0.22072968 0.058504183 -0.15122613
000050 e6 7e ed 3d 18 02 f3 3d 85 35 da 3d 0b bd 23 be
       0.115964696 0.11865634 0.10654739 -0.15990083
000060 41 9c 0b 3d c4 be 9c bd 89 f7 65 3d a3 01 0e 3e
       0.034084562 -0.07653573 0.05614427 0.13867812
000070 62 75 a4 3d 5d e3 f5 3d 7d 26 08 bc 8a 43 24 be
       0.080302015 0.12006257 -0.008309958 -0.16041389
000080 23 c8 ef 3c 57 3e 17 3e 60 9c a0 bc 64 8c 1a bd
       0.029270237 0.14769875 -0.019605815 -0.037731543
000090 ba ca 19 3d b2 5c 16 bd 2c ba bc bc ad e0 89 3d
       0.03754685 -0.036709495 -0.023037992 0.06732307
0000a0 61 f0 2d bd 4a 07 ed bc de 06 1a 3e a0 6b 9c bd
       -0.04246557 -0.02893414 0.15041682 -0.07637715
0000b0 50 3b 76 be cd 4c ab 3d 61 4f cd 3d 89 0e 55 3d
       -0.24046063 0.08364258 0.10024906 0.052015815
0000c0 73 df a5 bd e1 c3 a0 bc 10 b9 ec bd 0f 1a 04 3e
       -0.0809926 -0.019624652 -0.11558735 0.12900566
0000d0 f4 95 18 3d 43 c2 24 3e 79 5a 23 be 51 93 a3 bd
       0.03725238 0.1608973 -0.15952481 -0.07987083
0000e0 0e 34 39 bd 38 e3 27 be 64 e2 32 bc 5d 0d 26 be
       -0.04521566 -0.16395271 -0.010918234 -0.16216035
0000f0 5f 8a e4 3d b1 69 ea 3d 54 3c 6e 3c eb 66 05 3c
       0.11159205 0.1144594 0.0145407505 0.008142213
000100 cc 0c d1 bc 48 97 0d be a7 40 99 be a5 03 1e be
       -0.025518797 -0.1382724 -0.29932138 -0.15431078
000110 51 d2 37 be e6 91 b7 bd 97 dd 3c 3b 79 61 9d bd
       -0.17951323 -0.08963375 0.0028818601 -0.07684607
000120 f7 53 0e be 11 99 0b 3e 1e 43 c5 3d 06 78 18 b9
       -0.13899218 0.13632609 0.09631942 -0.00014540562
000130 27 c0 58 bd 84 b6 0c be e0 e6 63 be f5 1c 11 3e
       -0.052917626 -0.13741499 -0.2225604 0.14171202
000140 31 1e 53 3d ce 64 e7 bc 40 2c 2e 3e 05 0d f9 bd
       0.051542465 -0.02824631 0.17009068 -0.121606864
000150 3f d8 4e be 68 ac 44 be 5a ac fd bd 7a f4 a6 3d
       -0.20199679 -0.19206393 -0.12386389 0.08152099
000160 ea 13 61 3d ab eb 1b bb 3e 24 4a bb ec 79 0b 3e
       0.054950632 -0.0023791592 -0.0030844356 0.13620728
000170 be 6f 98 be 34 17 1d 3e d7 0b 8e bd 4f b8 06 3e
       -0.29772753 0.15340883 -0.06935852 0.13156246
000180 07 ff ae bd 83 84 37 3e 42 c0 14 bd bf ba fe bd
       -0.08544736 0.17921643 -0.036316164 -0.12437963
000190 62 98 f1 bd 96 70 02 3e 7d 38 0e be 54 c0 54 bd
       -0.11796643 0.1273826 -0.13888736 -0.05194123
0001a0 ad ae 5e be f2 6c b6 ba c6 91 6e be 28 bc 05 3e
       -0.21746321 -0.0013917966 -0.23297796 0.13060057
0001b0 b0 f7 34 be 34 69 ae 3b a1 08 88 bd 04 c9 ec 3d
       -0.1767261 0.0053226 -0.06642271 0.11561778
0001c0 45 c8 10 bd 54 3d 00 3d d0 ba 24 bb 9f 9a 74 be
       -0.035347242 0.031308487 -0.0025135763 -0.23887108
0001d0 79 a8 4b 3d 15 0d dc 3d a4 bb e5 3d 9c 8f ce bd
       0.049721215 0.10744683 0.1121743 -0.10085985
0001e0 65 72 10 be ad a1 c6 bc e0 0d 1c be ef d8 a8 bd
       -0.14106138 -0.024247015 -0.15239668 -0.08244502
0001f0 d7 41 55 be a5 df 21 be 2b b1 53 be 7d 38 61 3e
       -0.20825897 -0.1580797 -0.20673053 0.21994205
000200 b8 a7 2d be 37 3c 30 3d 30 20 00 3e aa 28 2d be
       -0.16958511 0.043026175 0.12512279 -0.16910043
000210 bc d9 b7 bd ea 17 7d bd c1 96 b1 3d 1a 49 a6 3d
       -0.089770764 -0.061790384 0.08671332 0.08119412
000220 40 a6 17 be ed 26 b6 bd df 02 2b 3b 0b 6f 4f bb
       -0.14809513 -0.08894143 0.002609424 -0.003165188
000230 6f e6 55 be 56 40 26 be c2 cd 6f 3d 65 eb e0 3d
       -0.20888685 -0.1623548 0.058545835 0.10982398
000240 73 9b eb 3d 2c c6 6b bd be d2 36 be 02 ae 0b 3e
       0.11504259 -0.05756204 -0.1785383 0.13640597
000250 dc 40 c4 bd 78 94 32 3d 09 5f 13 3e 07 c4 ed bd
       -0.095826834 0.043598622 0.14391722 -0.11609655
000260 70 ef 3f bd c1 6b 86 ba a4 67 53 bb 8a 8d 3d 3e
       -0.046859205 -0.0010255502 -0.003225782 0.18511024
000270 05 be 44 3d 06 3c 2a bc 88 76 44 bd e8 a8 0f be
       0.04803278 -0.010390287 -0.047964603 -0.14029276
000280 4a 80 4c be 2f 8c 86 be 54 a8 82 be d3 f4 85 3d
       -0.19970813 -0.26278827 -0.2551905 0.06540837
000290 c6 e7 37 be 30 8f 06 3e db 48 f3 3a 85 98 16 bd
       -0.17959508 0.13140559 0.0018561141 -0.036766548
0002a0 12 86 22 3e 7a d9 a0 bb a5 90 e4 3c c2 19 f3 bc
       0.15871456 -0.0049087377 0.027901003 -0.029675368
0002b0 4a b7 5c be 0b 56 c6 3d f3 c8 cd 3d 08 71 32 be
       -0.21554294 0.0968438 0.10048094 -0.1742593
0002c0 f3 8a 85 be 0b 5a 2b bd c0 3c 95 bd 82 35 2d be
       -0.26082572 -0.04183392 -0.07286978 -0.16914943
0002d0 7d 58 4e bd d8 e6 65 bd cc ee 99 3d ff c5 a8 3d
       -0.050377358 -0.056128353 0.0751625 0.0824089
0002e0 1f c3 ff 3c 00 4f bb bb 25 71 72 3d 84 a6 7d be
       0.03122097 -0.0057162046 0.059189934 -0.24770552
0002f0 a8 b8 84 bc d6 da 0c 3e d6 4e 1d bd 01 0c c3 3c
       -0.016201332 0.13755354 -0.038405262 0.023809435
000300 c3 35 fc 3d 83 ef 76 be 37 4d 03 be 3e 42 80 be
       0.12314942 -0.24114804 -0.12822424 -0.2505054
000310 3d e8 a4 3d e1 58 a0 bd dd 7e cc 3d e7 c1 0a 3e
       0.080521084 -0.07829452 0.09985135 0.1355053
000320 36 8b 12 3e e3 8f 3f bd 8c ed af 3d 2e eb 0c 3d
       0.14310917 -0.04676808 0.0859023 0.034403972
000330 8f dd f3 bd b8 ab ac 3d 21 89 14 be 3e e4 c1 3d
       -0.11907493 0.0843119 -0.14505436 0.09467362
000340 f9 36 0b be f9 96 de bc bf 3c 07 3c fe 6b 7a be
       -0.13595189 -0.027171599 0.008254229 -0.24455258
000350 9f 55 a4 3d 6a f9 1a bc cb 8d e7 3b b5 34 91 3c
       0.080241434 -0.009458879 0.0070664636 0.017725328
000360 20 9b e8 bd 81 3d 55 3d 36 79 62 bd da 19 a8 3d
       -0.11357713 0.052060608 -0.055291377 0.08208056
000370 03 39 99 3c f4 e1 ab bd 00 a4 87 3d 14 b6 7b 3d
       0.018703943 -0.083927065 0.066230774 0.06145294
000380 80 60 19 3e ce f7 19 bc 30 69 57 3d 8e 9b 61 3d
       0.14978218 -0.00939746 0.05259055 0.05507999
000390 82 3e 22 3d 28 f9 1f 3d 89 4f bd 3b 26 cf ca bb
       0.039610393 0.039055973 0.0057773036 -0.006189245
0003a0 9d 47 55 3d 7d 26 34 bd d9 3b 6f be 16 98 a7 3d
       0.05207025 -0.043982018 -0.23362674 0.08183305
0003b0 a2 1e 58 be 98 f8 21 be de 75 d8 b9 51 b8 75 3d
       -0.21105435 -0.15817487 -0.00041286548 0.05999023
0003c0 0e 69 7d be 02 03 0d 3e 43 2b d7 bd 3e 3c 50 be
       -0.24747106 0.13770679 -0.105062984 -0.2033548
0003d0 bd 3c 43 be 20 81 3a be db 39 7a be cc 10 b0 3d
       -0.19066139 -0.1821332 -0.24436133 0.08596954
0003e0 75 c8 ad 3d 76 65 c6 3d b2 1e a6 3d f4 b5 6c be
       0.084855 0.09687321 0.081113234 -0.23116285
0003f0 c7 cc 92 bd 58 6e 16 3d fa 05 e6 3d 5a 59 14 be
       -0.071679644 0.036726326 0.11231609 -0.1448721

bias f4 [10]
000000 12 12 32 be 5b ce ca bd 3b b5 ef 3d 45 8c da bd
       -0.17389706 -0.099026404 0.11704489 -0.106712855
000010 53 f4 b5 3d 55 ce 83 bd 4e dc c4 bc 83 3b 96 3c
       0.08884492 -0.06435839 -0.02403083 0.018338924
000020 6d b5 ac 3d e4 55 ac 3c
       0.08433042 0.02103705
