models/svhn.pth (torch, 253326 bytes, 10 tensors)

weight f4 [6, 3, 5, 5]
0	0x3cf71a80	0.030164003
1	0x3e968445	0.2939779
2	0x3e3cffce	0.18456957
3	0x3d24d4ff	0.04024219
4	0xbe0dd223	-0.13849692
5	0x3d9dec36	0.07711069
6	0x3e8d3b09	0.27584103
7	0x3d991906	0.07475476
8	0xbd61234b	-0.0549653
9	0xbe9206a3	-0.28520688
10	0x3e688e7c	0.22710603
11	0x3eadd6cd	0.33952942
12	0x3cee4f10	0.029090434
13	0xbe34feb8	-0.17675292
14	0xbeaeccdd	-0.34140673
15	0x3e126270	0.14295363
16	0x3e34c36c	0.17652673
17	0xbcb0dbcc	-0.021589182
18	0xbe842206	-0.25807208
19	0xbe228037	-0.15869223
20	0xbca51cd6	-0.020155352
21	0xbbc933af	-0.0061401944
22	0xbd61fa5c	-0.055170402
23	0xbea8d516	-0.32975072
24	0xbe0d7dfb	-0.13817589
25	0x3e05acf6	0.1305426
26	0x3ead7c4a	0.33883888
27	0x3e8079ff	0.25093076
28	0xbd9baa5f	-0.07600855
29	0xbdf004ac	-0.11719641
30	0x3cb1e0b3	0.02171359
31	0x3e7b7e8a	0.2455999
32	0x3e7d6d5a	0.24748746
33	0xbe9295f0	-0.28630018
34	0xbe8838ba	-0.2660578
35	0x3dd78e9f	0.1052525
36	0x3e8eb7fe	0.2787475
37	0x3e095104	0.13409811
38	0xbe544766	-0.20730361
39	0xbebc26ff	-0.36748502
40	0x3e846da5	0.25864902
41	0x3e9c309f	0.30505845
42	0xbd3aaf97	-0.04557761
43	0xbea77e8f	-0.32713744
44	0xbea3b97e	-0.31977457
45	0x3d970f4f	0.07375967
46	0x3e1f896f	0.1557977
47	0xbe0d55de	-0.13802287
48	0xbe664ecf	-0.22491
49	0xbe47e9e5	-0.19522817
50	0x3d1922f0	0.037386835
51	0x3eb7f5d2	0.35929734
52	0x3e800082	0.25000387
53	0xbe1690e5	-0.1470371
54	0xbd21e229	-0.039522324
55	0x3e1c1ade	0.15244624
56	0x3eb77fb5	0.3583962
57	0x3e3d8b76	0.18510231
58	0xbe3f5e23	-0.18688254
59	0xbdc2f63a	-0.0951962
60	0x3e298ee2	0.16558412
61	0x3e6266e2	0.22109559
62	0x3d9c9b6a	0.076468304
63	0xbe901daa	-0.28147632
64	0xbdf2383e	-0.118271336
65	0x3e2a62dc	0.16639274
66	0x3e8c76ee	0.27434486
67	0xbd7802c6	-0.06054952
68	0xbe4595a8	-0.1929537
69	0xbe83a587	-0.25712225
70	0xbc980084	-0.018554933
71	0xbd2ee260	-0.042696357
72	0x3cd33290	0.025780946
73	0xbe48c999	-0.19608153
74	0xbd2b03df	-0.04175174
75	0x3d045016	0.03230294
76	0x3d910828	0.07081634
77	0xbd8641ec	-0.06555542
78	0xbcccbab3	-0.024991369
79	0x3e662427	0.22474729
80	0x3ccbe6b6	0.024890285
81	0xbc964b8a	-0.018346567
82	0xbdf7fea0	-0.12109113
83	0x3cf4a1b3	0.02986226
84	0x3df98d4d	0.12185154
85	0xbde94e11	-0.11391843
86	0xbe23e9ec	-0.16007203
87	0xbe2e264a	-0.17006794
88	0xbe698f32	-0.22808531
89	0x3e052343	0.13001733
90	0x3d8728b1	0.06599558
91	0xbd740787	-0.05957749
92	0xbca94309	-0.020661848
93	0xbe23ab36	-0.1598328
94	0x3d19da97	0.03756198
95	0x3ea49908	0.32148004
96	0x3e8516d7	0.25993988
97	0xbd4fb6fa	-0.05071161
98	0xbd10950b	-0.03529839
99	0x3daa5c63	0.083184026
100	0x3d16e35e	0.036837928
101	0xbd34c57d	-0.044133652
102	0xbd98e09e	-0.07464717
103	0x3d9587b2	0.073012725
104	0x3e8d4431	0.27591088
105	0xbe095759	-0.13412227
106	0xbd169171	-0.036759797
107	0xbe4e2267	-0.20130311
108	0xbe3cf248	-0.18451798
109	0x3d9305a9	0.07178814
110	0xbd9a05b9	-0.07520623
111	0xbe5485ba	-0.20754138
112	0xbea16893	-0.31525096
113	0xbd9c2992	-0.076251164
114	0x3e11e514	0.14247543
115	0xbd953549	-0.07285554
116	0xbdf5d458	-0.12003392
117	0xbe3afd42	-0.18260673
118	0xbe4016e3	-0.1875873
119	0xbcc68349	-0.024232524
120	0x3e3b16c9	0.1827041
121	0x3d70d8bb	0.05880044
122	0xbd21c27e	-0.039492123
123	0xbdfda617	-0.12385195
124	0x3db00f61	0.08596683
125	0x3e67ab6f	0.2262399
126	0xbcdcc012	-0.026947055
127	0xbcd12c3b	-0.025533786
128	0xbb7fbcbe	-0.0039022411
129	0x3e6cbb6c	0.23118371
130	0xbdd0ded5	-0.10198752
131	0xbd9f769a	-0.07786293
132	0x3c955de0	0.01823324
133	0xbe2bdf25	-0.16784342
134	0x3e4ff38a	0.20307747
135	0xbe00a743	-0.12563805
136	0xbdefbb5f	-0.1170566
137	0xbd2d28f9	-0.042275403
138	0xbe6af4c7	-0.22944938
139	0x3d4cc67e	0.049993984
140	0x3deb673a	0.11494298
141	0x3db87124	0.09005955
142	0xbe03b72a	-0.1286284
143	0xbe4adf9a	-0.1981186
144	0x3e1e7334	0.15473634
145	0x3e125590	0.14290452
146	0x3e55f4b5	0.2089413
147	0x3e0e20d4	0.1387971
148	0xbd865937	-0.06559985
149	0x3e1eaa24	0.15494591
150	0x3d4e1483	0.05031253
151	0x3da1a447	0.078926615
152	0x3e175c8d	0.14781399
153	0x3cc7d0d2	0.024391565
154	0x3d8c9603	0.0686455
155	0xbd4c1d68	-0.04983273
156	0xbd8aa850	-0.06770384
157	0xbdb69ab4	-0.08916226
158	0x3d68dd91	0.056851927
159	0x3dd70666	0.10499267
160	0x3dac62df	0.08417296
161	0xbdb9d0f7	-0.0907306
162	0x3bff65b1	0.007794105
163	0x3d8cf18d	0.0688201
164	0xbddb7d55	-0.107172646
165	0xbd8c474f	-0.068495385
166	0x3e07f49a	0.13276902
167	0xbd9eb2fa	-0.07748981
168	0xbe18c77a	-0.14919844
169	0xbd524fcd	-0.051345635
170	0x3d7d4dda	0.061841823
171	0xbd85196d	-0.0649899
172	0x3d6c0a2b	0.057626884
173	0x3c42d06c	0.011890512
174	0xbdd010e7	-0.10159474
175	0x3d8caaed	0.06868539
176	0xba9ad431	-0.0011812506
177	0x3e32b8fa	0.17453375
178	0xbc766aa4	-0.015040074
179	0x3e555f83	0.20837216
180	0x3dc71709	0.097211905
181	0xbc94a22f	-0.018143741
182	0xbd7b7d00	-0.061398506
183	0x3bdec596	0.0067984564
184	0x3dce46f5	0.10072128
185	0x3bfc29b9	0.0076954034
186	0x3d34c2d6	0.044131123
187	0x3d93d0ad	0.07217536
188	0x3de1d434	0.11026803
189	0xbc20cc09	-0.009814271
190	0x3dd9a15f	0.10626482
191	0x3cc42fb5	0.02394853
192	0xbc0d5a35	-0.008627464
193	0xbd3b80d2	-0.04577715
194	0xbceb3adb	-0.028714588
195	0xbd886e57	-0.06661671
196	0xbc5fb3c1	-0.0136536965
197	0xbc4000ec	-0.01171897
198	0xbdb7ec26	-0.089805886
199	0x3c4224ad	0.0118495645
200	0x3d10aa2d	0.035318542
201	0x3e2c6759	0.16836299
202	0xbd63d84e	-0.055626206
203	0x3d99af9a	0.075041965
204	0xbdb86238	-0.09003109
205	0x3d3d645c	0.04623829
206	0x3e06f301	0.13178636
207	0x3dad3afd	0.08458517
208	0xbdb03eff	-0.086057656
209	0x3cf9c400	0.030488968
210	0xbc715853	-0.014730531
211	0x3dc0414a	0.09387453
212	0xbceba25e	-0.028763946
213	0x3d91b54a	0.07114656
214	0xbca2a69d	-0.019854838
215	0xbdcbf4b8	-0.09958786
216	0x3ddc56c7	0.10758739
217	0xbe0dbb35	-0.13840945
218	0x3cb6996d	0.022289956
219	0xbe2aed64	-0.1669212
220	0xbd4b9971	-0.04970688
221	0xbd237e0b	-0.039915126
222	0xbca07ebf	-0.019591687
223	0xbd5b120e	-0.053484015
224	0xbbe9532f	-0.007120512
225	0x3d8bcf74	0.06826678
226	0x3e604644	0.21901804
227	0x3efbcb81	0.491787
228	0x3f21841b	0.630922
229	0x3f0503f5	0.5195916
230	0xbd91cf99	-0.07119674
231	0xb9642bab	-0.00021760042
232	0x3e41944b	0.18904226
233	0x3e948bc8	0.29012895
234	0x3e9bb1ed	0.30409184
235	0xbe05b7ab	-0.13058345
236	0xbd6eccec	-0.058300897
237	0xbddd4b65	-0.10805396
238	0xbcf33965	-0.029690454
239	0x3dde9a39	0.108692594
240	0xbd30a3dd	-0.043125022
241	0xbe68739c	-0.22700351
242	0xbed8f16a	-0.42371684
243	0xbed7911b	-0.42102894
244	0xbe86791c	-0.26264274
245	0xbd13af63	-0.036055934
246	0xbe0938cf	-0.13400577
247	0xbecd93d9	-0.4015186
248	0xbee44d4c	-0.44590223
249	0xbeb7e2aa	-0.35915118
250	0x3d8f4ad7	0.069966964
251	0x3e8ef908	0.2792437
252	0x3ef4c29c	0.47804725
253	0x3f100a6b	0.56265897
254	0x3f103d1e	0.5634326
255	0x3d8a99cf	0.06767618

bias f4 [6]
0	0x3edfdf79	0.43725184
1	0x3e3e5292	0.18586186
2	0x3eb8a5fe	0.36064142
3	0x3dca6436	0.09882395
4	0xbd765e99	-0.06014881
5	0xbcfe970d	-0.031077886

weight f4 [16, 6, 5, 5]
0	0x3ca6a3a0	0.020341694
1	0x3e7f5563	0.24934916
2	0xbbce2a47	-0.006291661
3	0xbf4b52da	-0.79423296
4	0xbe6af84d	-0.22946282
5	0xbdb93d80	-0.09044933
6	0x3e2280e6	0.15869483
7	0xbd9747a1	-0.07386709
8	0xbed25c42	-0.41086012
9	0x3e3d87c3	0.1850882
10	0xbe00f751	-0.12594344
11	0x3d5218b5	0.051293094
12	0xbe801afb	-0.25020584
13	0xbc10d309	-0.008839377
14	0x3e922fa0	0.2855196
15	0xbd69e177	-0.057099786
16	0x3d2780fa	0.040894486
17	0xbe8bcda8	-0.2730534
18	0x3d0fd5d2	0.035116024
19	0x3e5d8628	0.21633208
20	0x3d84f014	0.06491104
21	0x3d54dd85	0.05196907
22	0xbed746f6	-0.42046326
23	0xbe617084	-0.22015578
24	0x3e31a2c5	0.17347248
25	0xbd2b4044	-0.041809335
26	0xbc9afe22	-0.018920008
27	0x3e9cade6	0.30601424
28	0x3e3ba45e	0.1832442
29	0xbe1aa780	-0.15102959
30	0x3d883ada	0.0665185
31	0x3e049ba7	0.12950002
32	0x3ead712a	0.338754
33	0x3cb728cd	0.022358323
34	0xbe27b6fe	-0.163784
35	0x3e1ec017	0.15502964
36	0x3de3d087	0.11123758
37	0x3e75158c	0.23934
38	0xbdf4ddf2	-0.11956395
39	0xbe225c4c	-0.15855521
40	0x3dde1ee6	0.10845737
41	0x3e0cacf1	0.13737847
42	0x3dea252a	0.1143287
43	0xbe72ac25	-0.2369848
44	0xbe4d184b	-0.20028798
45	0xba11542a	-0.00055438525
46	0x3d86e791	0.065871365
47	0x3d8cdb03	0.06877711
48	0xbea2d553	-0.31803378
49	0xbe35598c	-0.1770994
50	0xbd6e5d97	-0.058194723
51	0xbd2ff47f	-0.04295778
52	0xbd017ce7	-0.031613257
53	0x3b1a9fbf	0.0023593751
54	0x3dd30a03	0.10304644
55	0x3db3696f	0.08760344
56	0x3d36a967	0.04459515
57	0xbdb58f4d	-0.08865223
58	0x3cdf67cf	0.02727118
59	0x3e2ad2da	0.16681996
60	0x3d3faa1c	0.04679309
61	0xbdddc491	-0.10828508
62	0xbd378454	-0.044803932
63	0x3cb5a776	0.022174578
64	0x3df79497	0.12088888
65	0xbdd82d4a	-0.10555513
66	0xbd9f125b	-0.07767173
67	0x3bc431ec	0.0059873965
68	0xbd421f60	-0.047393203
69	0x3e0f32c0	0.13984203
70	0x3d853781	0.06504727
71	0x3cb8b509	0.022547262
72	0xbd08dd57	-0.03341421
73	0x3da6061c	0.08106634
74	0x3e2e1d05	0.17003258
75	0x3dbc8fcb	0.09207114
76	0x3dffbdc6	0.12487368
77	0x3d9b2237	0.07574885
78	0xbd7b7fa2	-0.061401017
79	0xbdc8fe83	-0.09814169
80	0x3d9f81c2	0.07788421
81	0x3dc83bc5	0.09777025
82	0xbd2db19b	-0.042405706
83	0xbe2e976c	-0.1704995
84	0x3cad7863	0.021175569
85	0x3e1649b3	0.14676552
86	0xbdfde530	-0.1239723
87	0xbe803ad2	-0.25044876
88	0xbe5aa0a2	-0.21350339
89	0xbd22d81e	-0.039756887
90	0x3a31e33b	0.0006785874
91	0xbe2c23ab	-0.16810481
92	0xbe504b49	-0.20341219
93	0xbd0805cd	-0.033208657
94	0xbd827131	-0.06369246
95	0x3d12af1a	0.03581152
96	0xbdb20489	-0.08692271
97	0xbd308191	-0.043092314
98	0xbe431d60	-0.19054174
99	0xbd9cf508	-0.076639235
100	0xbdba7b6e	-0.091055736
101	0xbdd4eb65	-0.103964604
102	0x3d153486	0.036427043
103	0xbe09b0ae	-0.13446304
104	0xbe0b276a	-0.13589254
105	0x3d582d04	0.052777305
106	0xbb8d3d3e	-0.004310279
107	0xbd824593	-0.063609265
108	0xbe855291	-0.26039556
109	0x3cb744fb	0.02237176
110	0x3ddc9ec9	0.10772473
111	0x3d941e1e	0.07232307
112	0xbdd4625d	-0.10370324
113	0xbe738c0f	-0.23783897
114	0xbbee47b5	-0.0072717317
115	0x3c1ddadb	0.009634699
116	0x3e02512b	0.12726276
117	0xbd8c792e	-0.06859051
118	0xbe8d2541	-0.27567485
119	0xbbd2efb9	-0.0064372686
120	0xbceab518	-0.028650805
121	0xbe023d58	-0.12718713
122	0xbe7994aa	-0.24373117
123	0xbe9353d6	-0.287749
124	0x3ddeb8c8	0.10875088
125	0xbb90bc70	-0.0044169948
126	0x3cf62ab9	0.030049669
127	0x3c8e5e8b	0.017379066
128	0x3c31b958	0.010847412
129	0x3d310e0d	0.04322629
130	0xbd56d811	-0.05245215
131	0xbd10d00b	-0.035354655
132	0x3d936a38	0.07197994
133	0x3cdd65f7	0.02702616
134	0xbcdf1537	-0.027231796
135	0x3bf60e06	0.007508996
136	0x3d18ac7b	0.037273865
137	0xbc3e9b7e	-0.011633752
138	0x3d1daa71	0.038492624
139	0x3b97f187	0.0046369466
140	0xbd622a90	-0.055216372
141	0x3d4b05ba	0.04956601
142	0x3a163454	0.00057298434
143	0xbc80eb4a	-0.015737195
144	0xbb5af219	-0.0033408462
145	0x3dbe1f29	0.09283287
146	0x3db61c98	0.088921726
147	0xbb3ab797	-0.0028490776
148	0xbd838ab9	-0.064229436
149	0x3d74b6dd	0.059744705
150	0xbe97b34d	-0.29628983
151	0xbeaeab8b	-0.34115252
152	0xbdf8587e	-0.121262535
153	0x3e873c75	0.26413313
154	0x3c06a574	0.008218158
155	0xbdbe9f7d	-0.09307764
156	0xbe2257f6	-0.15853867
157	0xbe02469e	-0.12722251
158	0x3e81f0fe	0.25379175
159	0x3cd84946	0.026402127
160	0x3db9fd38	0.09081501
161	0xbb525c0a	-0.0032098317
162	0xbe3b8c1d	-0.18315168
163	0x3da9ffb1	0.083007224
164	0x3cf2ccce	0.029638674
165	0x3d7cf98a	0.061761416
166	0x3d885680	0.066571236
167	0xbe9dd57f	-0.30826947
168	0x3e13490d	0.14383335
169	0x3dd6025d	0.104496695
170	0x3e17e61c	0.14833874
171	0x3db5c910	0.0887624
172	0xbea93c7e	-0.33053964
173	0x3e0f8d21	0.1401868
174	0x3e2f7e34	0.17137986
175	0x3db51ddb	0.08843585
176	0xbd4e16fe	-0.050314896
177	0xbd5e4bcb	-0.0542715
178	0xbd606f8e	-0.054793887
179	0x3cc0ce88	0.023535982
180	0xbd2770c1	-0.040879015
181	0xbb5048cb	-0.003178167
182	0xbdd39635	-0.10331384
183	0xbd0b9c1d	-0.034084428
184	0x3db287f4	0.08717337
185	0x3cc4a57a	0.024004687
186	0x3d9709e3	0.073749326
187	0xbc886da8	-0.01665385
188	0xbd30785e	-0.04308354
189	0x3dc2d2d1	0.09512866
190	0xbd47478d	-0.04865222
191	0x3d67293a	0.0564358
192	0x3ce712c0	0.028207183
193	0xbc85ca4e	-0.016331818
194	0x3c9575e6	0.018244695
195	0xbbc64b30	-0.0060514435
196	0x3e12a01c	0.1431889
197	0x3d992927	0.07478552
198	0xbdce1781	-0.10063077
199	0x3df92e23	0.12167003
200	0x3b4223ea	0.0029623457
201	0xbc06d526	-0.0082295295
202	0x3d6ee1d2	0.058320828
203	0x3d77bb19	0.060481165
204	0x3d4cecb7	0.050030436
205	0x3d339398	0.04384193
206	0xbd906dc3	-0.070521854
207	0x3c0098a0	0.007848889
208	0xbc67a57f	-0.014138578
209	0x3d8c5ba8	0.068534195
210	0x3d189921	0.03725541
211	0x3d051fa5	0.03250088
212	0x3c29025c	0.010315504
213	0x3c389d28	0.011267938
214	0x3c6ac4fc	0.014329191
215	0x3d8731f4	0.06601325
216	0xbd8d13e4	-0.068885595
217	0x3c058416	0.0081491675
218	0xbd439c0b	-0.047756236
219	0xbb3b4130	-0.002857279
220	0x3d799a1a	0.06093798
221	0xbd3c46bc	-0.045965895
222	0xbc9dd13b	-0.019264808
223	0xbbf1bbcd	-0.007377124
224	0x3cb602ef	0.022218196
225	0x3d7c1175	0.061540086
226	0x3daa864b	0.083263956
227	0x3d24faa7	0.040278103
228	0xbe405414	-0.18782073
229	0xbd292f98	-0.041305155
230	0x3d25f8ec	0.040520594
231	0x3e25970b	0.161709
232	0x3c760406	0.015015608
233	0xbe351778	-0.17684734
234	0xbe18edec	-0.1493451
235	0xbbaa2a02	-0.005192996
236	0x3dbf527a	0.09341903
237	0x3cec4dde	0.028845724
238	0xbe5d3fdf	-0.21606396
239	0xbd967387	-0.07346254
240	0xbd913716	-0.07090585
241	0x3c254f9c	0.010089781
242	0xbd485d7a	-0.04891727
243	0xbe25781f	-0.16159104
244	0xbc03d908	-0.00804735
245	0x3df6f44e	0.12058316
246	0x3d196fcc	0.037460133
247	0xbe184679	-0.14870633
248	0xbe3e2e4e	-0.18572351
249	0xbd898814	-0.06715408
250	0x3d86ba1c	0.06578466
251	0x3d04c29f	0.032412168
252	0xbd93e383	-0.07221129
253	0x3d5812a9	0.05275217
254	0x3dc6fd60	0.09716296
255	0x3d8600ee	0.06543146

bias f4 [16]
0	0x3f037691	0.5135279
1	0x3db316af	0.08744561
2	0xbd88234d	-0.06647358
3	0x3e8d7b21	0.27633002
4	0xbc461686	-0.012090331
5	0x3e94bd6b	0.29050764
6	0xbf294a80	-0.661293
7	0x3e5405df	0.20705365
8	0xbc20e142	-0.009819331
9	0xbd1e04b6	-0.03857871
10	0xbe884a6d	-0.26619282
11	0x3d7df2eb	0.061999243
12	0x3e5fca6d	0.21854563
13	0x3e499a53	0.19687776
14	0x3ee01419	0.43765333
15	0x3e96d1a7	0.29456827

weight f4 [120, 400]
0	0x3d0fd8e0	0.035118937
1	0xbda6e78c	-0.08149633
2	0xbda7b39c	-0.08188555
3	0xbd9ee375	-0.07758228
4	0xbd274e90	-0.040846407
5	0x3d9c8651	0.07642806
6	0x3c6e8995	0.014559169
7	0xbde42b20	-0.11141038
8	0xbce754ba	-0.028238643
9	0x3d7e6c54	0.06211503
10	0x3caf79bd	0.021420354
11	0xbd418ad0	-0.047251523
12	0xbdce991f	-0.10087799
13	0xbd0b8ec4	-0.0340717
14	0xbbf6c040	-0.007530242
15	0x3db8d0be	0.090241894
16	0xbba48c62	-0.0050216177
17	0xbd254d1f	-0.04035675
18	0xbd89b3aa	-0.06723721
19	0xbcb5dfc4	-0.022201426
20	0xbc747de2	-0.014922591
21	0xbd7b5829	-0.061363373
22	0xbe1bed2d	-0.15227194
23	0xbe01b78c	-0.12667674
24	0xbd351882	-0.044212826
25	0x3d90e2b5	0.07074491
26	0x3c0a65eb	0.008447151
27	0xbcacaedc	-0.021079473
28	0xbc006ebd	-0.007838902
29	0xbc6ee468	-0.0145808235
30	0x3da745a9	0.081675835
31	0xbd692102	-0.056916244
32	0x3c6a4abb	0.014300044
33	0xbc6a809d	-0.01431289
34	0x3d0900f5	0.03344818
35	0xbbf747f3	-0.007546419
36	0x3ca28403	0.019838339
37	0xbdaf7f72	-0.0856923
38	0x3bfad9da	0.0076553645
39	0xbc1aa14c	-0.00943787
40	0x3ccbfb24	0.024900027
41	0xbc6e7260	-0.014553636
42	0xbc4cdda7	-0.012504018
43	0xba9ff42a	-0.0012203504
44	0x3d79ee7b	0.06101845
45	0x3bcc639e	0.006237461
46	0xbbef1cd2	-0.007297137
47	0xbc3f17de	-0.011663405
48	0x3d0bc0c4	0.034119383
49	0x3ce69692	0.02814797
50	0xbcaa7d83	-0.020811802
51	0x3c36c61d	0.011155632
52	0xbc235e64	-0.009971235
53	0xbc8c2c22	-0.017110888
54	0x3cfe9cd1	0.031080635
55	0xbc4fcf03	-0.012683633
56	0xbd2f7599	-0.04283676
57	0xbdc859f1	-0.0978278
58	0xbd269357	-0.040667858
59	0x3cd6183b	0.0261346
60	0xbd83d01a	-0.064361766
61	0xbd6403a0	-0.05566752
62	0x3d4bbf94	0.04974325
63	0xbca45961	-0.02006215
64	0xbc1b0acb	-0.009463022
65	0xbd1d83ef	-0.0384559
66	0xbd73a80a	-0.059486426
67	0x3dc6c572	0.097056285
68	0xbc51c381	-0.012802959
69	0xbb583931	-0.0032993073
70	0xbd1ec240	-0.03875947
71	0x3dfe77e3	0.1242521
72	0x3e5fa1a7	0.21839009
73	0xbbe51e16	-0.006992112
74	0xbd09ac01	-0.0336113
75	0x3dce8880	0.10084629
76	0x3d9949c9	0.074847765
77	0xbc3683cb	-0.01113982
78	0xbba99598	-0.0051753037
79	0xbd1f7697	-0.038931455
80	0x3d7cdb7f	0.061732765
81	0x3dd8dfa6	0.105895326
82	0xbc56e801	-0.0131168375
83	0xbd8e47a3	-0.06947257
84	0xbd64bbc2	-0.055843122
85	0xbb680efd	-0.0035409324
86	0x3dce99b5	0.10087911
87	0xbb227f52	-0.0024795127
88	0x3d9e53c9	0.077308245
89	0x3d4821e2	0.04886044
90	0xbc792186	-0.0152057465
91	0x3d9c2ef0	0.0762614
92	0xbd9d40d9	-0.07678384
93	0x3d8c7e3f	0.06860017
94	0xbd10ab16	-0.03531941
95	0x3d19b4b6	0.037525855
96	0xbcc6a119	-0.02424674
97	0xbde6886b	-0.112564884
98	0xbd8c3950	-0.06846869
99	0xbc01808b	-0.007904182
100	0xb9bb03ca	-0.00035670243
101	0x3cec5cc3	0.028852826
102	0xbc45f561	-0.012082429
103	0xbbdbc4ba	-0.0067068012
104	0xbcb41119	-0.021980809
105	0xbd2b612f	-0.04184073
106	0xbd383ade	-0.044978015
107	0x3d22913c	0.039689288
108	0xbc373624	-0.011182342
109	0x3d0c7984	0.034295574
110	0xbce6daab	-0.02818044
111	0x3c91b9bb	0.017788759
112	0x3c1c9287	0.009556419
113	0x3d35212e	0.044221096
114	0xbd120cee	-0.035656862
115	0x3cd97174	0.026543356
116	0x3cea8bc5	0.0286311
117	0x3bf687ba	0.007523504
118	0x3d1e73e3	0.038684737
119	0x3cae5f88	0.021285787
120	0xbd44cd60	-0.048047423
121	0xbcf3e3c5	-0.029771695
122	0x3cd8a1ed	0.0264444
123	0xbd3049d5	-0.04303916
124	0x3d04be4b	0.03240804
125	0x3d6d5f69	0.05795232
126	0xbd1fc66c	-0.03900759
127	0x3cbb3cc8	0.022856131
128	0xbd207bcc	-0.039180562
129	0xbdab5830	-0.0836643
130	0x3cb2f4ac	0.021845184
131	0x3d80f56e	0.06296812
132	0x3cf5bf3c	0.029998414
133	0x3dc4345e	0.09580301
134	0x3c93b95b	0.01803272
135	0x3bf41f13	0.0074499934
136	0x3d919572	0.071085826
137	0xbde92ac0	-0.11385107
138	0x3df44bcb	0.11928519
139	0x3c7d6e99	0.015468263
140	0x3d4022b2	0.046908088
141	0x3b96ca5e	0.004601761
142	0xbb037af2	-0.0020062295
143	0x3b8de307	0.0043300423
144	0x3beb1489	0.007174079
145	0x3cce2502	0.025164131
146	0x3ced078d	0.028934265
147	0x3d8a636a	0.06757243
148	0x3d347a54	0.044061974
149	0xbc21d903	-0.0098784
150	0x3d2f64a4	0.042820588
151	0x3c58a347	0.013222522
152	0x3d06b077	0.032883134
153	0x3ae05e83	0.001711801
154	0xbc102a16	-0.008799097
155	0xbbf2f093	-0.0074139326
156	0xbcf77fd2	-0.030212317
157	0x3c855bdb	0.016279152
158	0x3c8b7a06	0.017025959
159	0x3ca05121	0.019569935
160	0xbd4a754f	-0.04942828
161	0x3cfc22df	0.030778347
162	0xbc6282de	-0.0138251465
163	0xbd36f3d6	-0.044666134
164	0x3d543279	0.051805947
165	0x3c3c19a1	0.01148072
166	0xbcb52d5a	-0.022116352
167	0xbd00906d	-0.031387735
168	0xbb80cb98	-0.0039305203
169	0x3c756bfd	0.01497936
170	0xbda2b7c0	-0.07945204
171	0x3c635b21	0.013876707
172	0x3e049c65	0.12950285
173	0xbb8d7096	-0.0043164
174	0x3d0b3cd5	0.03399356
175	0xbc3b44f8	-0.011430018
176	0x3cd41a60	0.025891483
177	0x3d8476a3	0.06467941
178	0x3d9c626e	0.076359615
179	0x3d3d4d6d	0.046216417
180	0x3c729c30	0.014807746
181	0xbd12d5f6	-0.03584858
182	0xbc61d224	-0.013783012
183	0x3ccc8df5	0.024970034
184	0xbd07f615	-0.033193666
185	0x3beba888	0.0071917213
186	0xbd8f49e2	-0.06996514
187	0xbdada5ee	-0.08478914
188	0xbc975222	-0.018471781
189	0xbd64ea53	-0.05588753
190	0x3d53e08b	0.051727813
191	0xbe08687e	-0.1332111
192	0xbdb40f28	-0.08791953
193	0x3d22d84c	0.039757058
194	0xbbcc8c22	-0.006242291
195	0x3c3badf6	0.01145505
196	0xbdeda3c0	-0.116034985
197	0xbcb0bea4	-0.02157528
198	0x3dc36885	0.0954142
199	0x3db1e660	0.08686519
200	0xbd5fac27	-0.054607537
201	0x3d2de183	0.042451393
202	0xbcdedfd9	-0.027206348
203	0xbd487ecd	-0.04894905
204	0xbcf826e8	-0.03029199
205	0xbb3160ce	-0.0027065757
206	0x3d45d9e3	0.048303496
207	0xbd0c0f9b	-0.03419457
208	0xbd4ccd7b	-0.05000065
209	0xbdbaf8b4	-0.091294676
210	0x3cce3e5b	0.025176218
211	0x3dc0ee2c	0.09420428
212	0x3cb7ea77	0.022450669
213	0xbd1d6831	-0.038429443
214	0x3d866fa9	0.06564266
215	0xbdcf5858	-0.10124272
216	0x3d773f7e	0.060363285
217	0x3d49bc80	0.049252033
218	0x3cf9589c	0.03043776
219	0x3dbb4f10	0.09145939
220	0xbdf233da	-0.11826296
221	0x3cfd0f06	0.030890953
222	0x3dfa6a65	0.122273244
223	0x3d670080	0.05639696
224	0x3c4399b0	0.011938497
225	0xbd43779c	-0.04772149
226	0x3d85afd1	0.06527675
227	0x3db0ed03	0.086389564
228	0xbbe9f34a	-0.007139598
229	0x3d94a419	0.07257862
230	0xbd9a1217	-0.075229816
231	0xbbe0a28c	-0.0068553146
232	0x3c935143	0.017983085
233	0x3c9334f2	0.017969582
234	0xbc3742eb	-0.011185388
235	0xbc9e37ea	-0.019313771
236	0x3d00494c	0.0313199
237	0xbd92ed09	-0.07174117
238	0xbde4f1b5	-0.111789145
239	0xbc27f5bc	-0.010251459
240	0xbd81b806	-0.06333928
241	0xbd876980	-0.066119194
242	0x3c1f5b47	0.009726352
243	0xbd24ccd2	-0.040234394
244	0xbcffb2fe	-0.03121328
245	0xbdf69b72	-0.120413676
246	0xbbd17a0b	-0.0063927225
247	0x3e291d26	0.16515025
248	0x3d00d340	0.031451464
249	0xbcb70712	-0.022342239
250	0x3d8399de	0.06425832
251	0x3c870440	0.016481519
252	0xbd975250	-0.07388747
253	0xbe12b781	-0.14327814
254	0x3d03cc5e	0.03217732
255	0xbcb0dec3	-0.021590596

bias f4 [120]
0	0x3d6e63da	0.058200695
1	0xbd96b71a	-0.073591426
2	0x3dabacd9	0.083825774
3	0x3dbb198d	0.09135733
4	0x3dac9491	0.08426774
5	0xbd17cee1	-0.03706253
6	0xba5df321	-0.000846671
7	0x3e6e93db	0.2329859
8	0x3e2a0e03	0.16606908
9	0x3aba32ba	0.0014205792
10	0xbc38c2d3	-0.011276918
11	0x3d154b06	0.0364485
12	0x3cf96449	0.030443328
13	0x3ceed667	0.02915497
14	0xbcff3abe	-0.03115594
15	0x3abf7821	0.0014607945
16	0x3e0752f8	0.13215244
17	0xbd484a7d	-0.048899163
18	0xbdf8d979	-0.121508546
19	0xbc1e2362	-0.009651991
20	0xbd744a30	-0.059641063
21	0xbdb6125c	-0.088902205
22	0x3d6cf68e	0.05785232
23	0x3c64cbc3	0.013964596
24	0x3d5b4d56	0.05354055
25	0xbcc0a466	-0.023515891
26	0x3dc5ae24	0.09652355
27	0x3d3d5362	0.0462221
28	0x3e4ef17d	0.20209308
29	0x3db76b04	0.089559585
30	0x3dc6b610	0.097026944
31	0x3e913a1a	0.2836464
32	0x3db82541	0.089914806
33	0x3dcab5b1	0.09897936
34	0x3e758f42	0.2398043
35	0x3dc4f9e4	0.09617975
36	0xbb8a477a	-0.0042199465
37	0x3e43bd31	0.1911514
38	0x3d16b2ca	0.0367916
39	0x3dac6c37	0.08419078
40	0x3e030239	0.12793817
41	0xbb25992a	-0.0025268295
42	0x3d3c2365	0.045932192
43	0xbc70d4f6	-0.014699211
44	0x3de15078	0.11001676
45	0x3d99d064	0.075104505
46	0x3d4ca228	0.04995933
47	0xbc6f0a0a	-0.014589796
48	0x3d85df92	0.06536783
49	0xbd86b769	-0.065779515
50	0xbd8bf5a8	-0.068339646
51	0x3e824ef7	0.2545087
52	0xbcaabefd	-0.020843023
53	0xbc43ca18	-0.011950038
54	0xbc6182de	-0.013764111
55	0xbcdd82df	-0.027039943
56	0x3e356d02	0.17717364
57	0x3db69053	0.089142464
58	0x3dfb0f11	0.12258733
59	0xbda7999a	-0.08183594
60	0x3dff1bb2	0.12456454
61	0x3d0ad9c9	0.033899102
62	0x3df59cc3	0.119927905
63	0x3c8d62cc	0.017259024
64	0x3e0d5827	0.13803159
65	0x3dff13f5	0.124549784
66	0x3dada969	0.08479578
67	0x3d649b35	0.05581208
68	0x3e54caab	0.20780437
69	0xbcf8ae77	-0.030356629
70	0xbd8a43a7	-0.06751185
71	0x3dd0f2e3	0.10202577
72	0x3e542b90	0.20719743
73	0x3dfc1399	0.123084255
74	0x3d068388	0.03284028
75	0x3e980748	0.29693055
76	0x3e06e38b	0.13172738
77	0x3ddd80e0	0.108155966
78	0x3cb5b259	0.02217977
79	0xbd275d19	-0.04086027
80	0x3df6f7e9	0.12059004
81	0x3ddfc622	0.10926463
82	0xbccf7ba7	-0.025327517
83	0x3ddd4dab	0.108058296
84	0x3b8ecdf2	0.0043580467
85	0xbd12666c	-0.03574221
86	0xbd9901d7	-0.07471054
87	0xbcc9001a	-0.024536181
88	0x3d8ac3d8	0.067756355
89	0x3e0f0f84	0.13970762
90	0x3d89dea5	0.06731919
91	0x3cde84b3	0.027162885
92	0x3d307539	0.043080542
93	0x3d15ae2f	0.036543068
94	0x3d12196b	0.03566877
95	0x3e943245	0.28944603
96	0x3e0c9bf1	0.13731362
97	0xbd72e6c9	-0.059302125
98	0x3dcd5d0a	0.100275114
99	0x3df27693	0.118390225
100	0xbd348c16	-0.04407891
101	0x3d889f77	0.066710405
102	0x3db7e83d	0.08979843
103	0xbd6b2eed	-0.0574178
104	0x3dab46fa	0.08363147
105	0x3dee86b0	0.11646783
106	0xbd193790	-0.037406504
107	0xbd947732	-0.07249297
108	0x3da70c2c	0.081566185
109	0x3e132121	0.14368106
110	0x3ce32a1a	0.027730037
111	0x3e148503	0.14503865
112	0xbcc817cc	-0.02442541
113	0x3e6780ae	0.22607681
114	0x3bcbd6b9	0.0062206653
115	0x3e1da02e	0.15393135
116	0x3d0943a2	0.033511765
117	0x3bb9e9e5	0.0056736344
118	0x3c79203a	0.015205437
119	0x3c9eff00	0.019408703

weight f4 [84, 120]
0	0xbc600164	-0.013672207
1	0xbd3a97a0	-0.045554757
2	0xbd6c7811	-0.05773169
3	0x3d0ef3b1	0.03490037
4	0xbd3a7a19	-0.045526598
5	0xbd400798	-0.046882242
6	0xbcd95717	-0.026530785
7	0x3d9b9372	0.07596482
8	0x3dcb1013	0.09915175
9	0x3db6ec2a	0.089317635
10	0x3d3967d6	0.04526504
11	0x3ce1a4dd	0.027544433
12	0x3d380e4f	0.04493552
13	0xbd602e01	-0.054731373
14	0xbc6ef340	-0.0145843625
15	0x3c8fed47	0.017569197
16	0xbe1118b9	-0.14169587
17	0xbd1b6637	-0.037939277
18	0xbd93743b	-0.071999036
19	0x3d70c9d1	0.058786217
20	0x3bab0550	0.005219139
21	0xbdd80b04	-0.10548976
22	0x3c94ef5b	0.01818054
23	0xbc9279ee	-0.017880406
24	0xbd40320b	-0.046922725
25	0xbda104f1	-0.078622706
26	0xbb103d48	-0.0022009183
27	0x3e3a1191	0.18170764
28	0xbc71fadd	-0.014769283
29	0xbd1ce6e5	-0.038306136
30	0x3c6892ab	0.014195125
31	0x3d49dd81	0.04928351
32	0x3daf4530	0.08558118
33	0x3d882805	0.06648258
34	0xbcc61587	-0.024180187
35	0xbb810ae2	-0.003938065
36	0xbd5c74a5	-0.05382218
37	0xbd683a6a	-0.056696333
38	0x3c8f6ca7	0.017507864
39	0x3da533dd	0.08066533
40	0xbbecc55c	-0.0072256755
41	0x3cff3a9f	0.031155882
42	0xbcc78ebf	-0.024360059
43	0x3cac11e9	0.021004634
44	0xbd1572fb	-0.036486607
45	0xbd9f27d6	-0.0777127
46	0x3b3d6a4a	0.0028902465
47	0xbd34fcab	-0.044186275
48	0xbd20ea3f	-0.039285894
49	0xbd0b5092	-0.034012385
50	0x3d0751f8	0.033037156
51	0x3b8f93b6	0.004381622
52	0x3d8745f0	0.066051364
53	0x3d8e7bed	0.06957231
54	0xbd5cf3a9	-0.05394331
55	0xbd1c57cf	-0.03816968
56	0xbdd207f4	-0.10255423
57	0xbcefaafb	-0.029256335
58	0xbdd4e310	-0.10394871
59	0xbde691a6	-0.11258249
60	0xbd631692	-0.055441447
61	0x3bd86cff	0.00660479
62	0x3dc58c77	0.09645932
63	0xbe016376	-0.12635598
64	0x3d882239	0.066471525
65	0xbd10ed8a	-0.035382785
66	0xbd969197	-0.07351988
67	0x3d971a76	0.07378094
68	0x3ccd7bbf	0.02508342
69	0xbd4cb014	-0.04997261
70	0x3c94da8e	0.018170621
71	0x3ca700ef	0.020386187
72	0xbd420c57	-0.04737505
73	0x3d027eaa	0.031859078
74	0x3bbfa732	0.0058487887
75	0xbd22df9a	-0.039764024
76	0xbdbf6295	-0.09344975
77	0xbd0f8e97	-0.035048094
78	0x3da74a76	0.08168499
79	0xbc12c0ce	-0.008957101
80	0x3d2e2d57	0.04252371
81	0xbc38bd8f	-0.011275663
82	0xbc9fd5c3	-0.01951111
83	0xbdc167b9	-0.09443612
84	0x3c60f9ae	0.013731403
85	0xbdbd90cd	-0.09256134
86	0xbd83ae32	-0.064297095
87	0x3db93113	0.09042563
88	0x3cf856b7	0.030314786
89	0xbdb02886	-0.08601479
90	0x3d4a206b	0.049347322
91	0xbdb0d86d	-0.0863503
92	0x3d687ad9	0.05675778
93	0xbdce98be	-0.10087727
94	0x3d9bc345	0.07605604
95	0x3de72d8a	0.11287983
96	0xbda3f17e	-0.08005045
97	0x3dbbbe51	0.09167159
98	0xbdc9d6ec	-0.09855446
99	0xbe10ce17	-0.14141117
100	0x3cb103de	0.02160829
101	0xbbff9b12	-0.0078004682
102	0xbda97b75	-0.08275501
103	0xbd73b763	-0.059501063
104	0x3d48e09d	0.049042333
105	0x3d36194e	0.044457726
106	0xbd4b647d	-0.04965638
107	0xbd369b64	-0.044581786
108	0xbdbc5c89	-0.09197337
109	0x3d0f3f27	0.034972336
110	0xbc8f9fbb	-0.01753222
111	0x3db9c000	0.09069824
112	0xbca92578	-0.02064775
113	0xbdb4ecf0	-0.08834255
114	0xbd4a3464	-0.04936637
115	0xbce39427	-0.027780605
116	0x3bc5dd51	0.006038346
117	0xbe05e1ad	-0.1307437
118	0xbdb98668	-0.09058839
119	0xbdb5bf57	-0.08874386
120	0x3d05bd97	0.03265151
121	0xbc37e48d	-0.011223924
122	0xbd283ec2	-0.041075476
123	0x3d9f544c	0.0777975
124	0x3d362043	0.04446436
125	0x3db9d2c3	0.09073403
126	0x3d0c4167	0.03424206
127	0xbdd4d5ec	-0.10392365
128	0x3badf460	0.005308673
129	0x3d7f99f9	0.0624027
130	0x3daf0f15	0.085477985
131	0xbde439b9	-0.11143822
132	0xbd851259	-0.0649764
133	0xbd52649a	-0.051365472
134	0xbd3fd6ef	-0.046835836
135	0xbdde6cd4	-0.10860601
136	0xbd8fb72d	-0.0701736
137	0x3d0222c8	0.03177145
138	0xbd331b15	-0.043727
139	0xbdad95e2	-0.084758535
140	0x3a33079d	0.00068294426
141	0x3d9b3743	0.075789
142	0x3cef95e2	0.029246274
143	0x3d7f74b5	0.06236716
144	0xbc6b0344	-0.01434404
145	0xbbee4fd7	-0.0072727012
146	0x3da9d427	0.08292418
147	0xbdc765c9	-0.09736211
148	0x3d8da906	0.06917004
149	0x3c581db0	0.013190672
150	0x3e0355ff	0.12825774
151	0x3c888b98	0.016668126
152	0x3e139836	0.14413533
153	0xbc869d8c	-0.016432546
154	0x3d5e49d0	0.05426961
155	0xbdde8429	-0.10865051
156	0xbce6f398	-0.028192326
157	0xbd2a5fc9	-0.041595254
158	0xbde5cf56	-0.11221187
159	0x3d151f2d	0.036406685
160	0x3d8dde3c	0.069271535
161	0xbe05ccbe	-0.13066384
162	0xbdef9744	-0.116987735
163	0xbd964ba4	-0.07338646
164	0x3ab49d0d	0.0013779715
165	0xbe1f915f	-0.15582798
166	0x3e12e55e	0.14345309
167	0xbcbc3fee	-0.022979703
168	0xbd015b2f	-0.0315811
169	0xbdfb6a47	-0.1227613
170	0xbd0e7351	-0.034777943
171	0xbdc50071	-0.09619225
172	0x3d698efb	0.057021122
173	0x3d55f28d	0.052233268
174	0x3db38e62	0.08767392
175	0xbd62eb4b	-0.055400174
176	0xbcdeb31c	-0.027185015
177	0x3d95a344	0.07306531
178	0xbd320ebd	-0.043471087
179	0x3de76de3	0.11300256
180	0xbd30cb11	-0.04316241
181	0x3d71fb10	0.059077322
182	0x3da80a01	0.08205033
183	0xbce95558	-0.028483078
184	0x3d9b4a10	0.07582486
185	0xbd94a5ea	-0.07258208
186	0x3cdd7766	0.027034473
187	0xbd18a428	-0.037265927
188	0xbc711356	-0.014714083
189	0x3c5275ab	0.012845437
190	0x3da3cfd5	0.07998625
191	0xbcc3b892	-0.02389172
192	0x3d6bf61c	0.057607755
193	0xbcead860	-0.028667629
194	0xbd043c02	-0.03228379
195	0xbd98791d	-0.074449755
196	0xbd77580b	-0.0603867
197	0xbd8100ca	-0.062989786
198	0xbd746156	-0.05966314
199	0x3d92e418	0.07172412
200	0x3df19218	0.11795443
201	0xbdb477a7	-0.088118844
202	0xbe0d5272	-0.13800982
203	0xbd6a48f6	-0.057198487
204	0xbdda66e2	-0.106641546
205	0xbdd62fff	-0.10458373
206	0xbd5c490e	-0.053780608
207	0x3ce30524	0.027712412
208	0xbd4b4180	-0.049623013
209	0x3ba6812f	0.005081318
210	0xbce31373	-0.027719235
211	0x3e263044	0.1622935
212	0x3c20e18b	0.009819399
213	0x3e0d0f3a	0.1377534
214	0xbc38f4b1	-0.011288808
215	0x3dc5faa3	0.09666946
216	0x3c9d1efb	0.019179812
217	0xbd03373c	-0.032035097
218	0xbd0d0592	-0.03442914
219	0x3c450ab8	0.012026481
220	0xbc82cf2f	-0.015967933
221	0xbdbd7b69	-0.09252054
222	0xbdc65daa	-0.09685834
223	0xbd4c527f	-0.049883362
224	0x3d8c4c30	0.06850469
225	0x3ccbbcb4	0.024870254
226	0x3dd9e91e	0.10640167
227	0x3c1ca8a3	0.0095616905
228	0xbba54b70	-0.0050443932
229	0x3e14f8b2	0.14547995
230	0xbd62d545	-0.05537917
231	0x3c9e0122	0.01928765
232	0xbe1429bf	-0.1446905
233	0x3ca83804	0.020534523
234	0xbd8cef12	-0.068815365
235	0x3dc8369b	0.0977604
236	0xbdb65b3c	-0.0890412
237	0x3c18580e	0.009298338
238	0x3c09c971	0.008409844
239	0xbdf26826	-0.11836271
240	0xbd07165b	-0.032980304
241	0x3e081217	0.1328815
242	0x3d6298df	0.05532157
243	0x3e4e54ab	0.20149486
244	0xbc128cac	-0.008944672
245	0x3cdb1b2c	0.026746355
246	0xbdb85d13	-0.090021275
247	0x3c15e701	0.009149314
248	0x3d927c63	0.07152631
249	0x3d854f6b	0.065092884
250	0x3db10905	0.086442985
251	0xbaa6b14b	-0.0012717632
252	0x3dda2280	0.106511116
253	0xbd2f5d37	-0.042813506
254	0xbdcbc88b	-0.0995036
255	0xba2be6fe	-0.0006557553

bias f4 [84]
0	0x3d31946a	0.04335443
1	0x3e2ea365	0.17054518
2	0x3dfbfd8b	0.12304219
3	0x3ca88813	0.020572698
4	0xbd476355	-0.048678715
5	0x3e72156c	0.23640984
6	0x3e0590ac	0.13043469
7	0xbd8952c9	-0.06705243
8	0x3d991e96	0.07476537
9	0xbd08b95a	-0.03337989
10	0x3cdce6f6	0.0269656
11	0xbc2b78bb	-0.010465796
12	0x3dd2ef37	0.10299533
13	0xbdb378a1	-0.087632425
14	0x3e34472b	0.17605273
15	0x3e173db6	0.14769635
16	0x3e130ae1	0.14359619
17	0xbd98731d	-0.07443831
18	0x3ca7fe96	0.020507138
19	0x3c9ccf28	0.019141749
20	0x3debbfba	0.11511178
21	0x3e45ea7b	0.19327728
22	0xbd334194	-0.043763712
23	0x3d62f257	0.055406895
24	0xbdfac3ac	-0.12244353
25	0xbd2314b9	-0.039814685
26	0x3d6c7750	0.057730973
27	0x3e1e6dcd	0.15471573
28	0x3cd99668	0.026560977
29	0xbdbe44fd	-0.09290502
30	0x3e574c44	0.21025187
31	0x3c830d3d	0.015997523
32	0x3e104d35	0.14091952
33	0x3daf58d5	0.08561865
34	0xbd7829ec	-0.060586855
35	0x3dbca48b	0.092110716
36	0x3dafc849	0.08583123
37	0x3e258588	0.1616422
38	0xbc0200ed	-0.007934791
39	0x3e96b98b	0.29438433
40	0x3c949903	0.018139368
41	0x3bd07d26	0.006362575
42	0x3bfd38dd	0.007727726
43	0xbd0ed00f	-0.03486639
44	0xbda00794	-0.078139454
45	0x3e043144	0.12909418
46	0x3e622591	0.22084643
47	0x3e6ed1d3	0.23322229
48	0x3ba1d5b4	0.0049388055
49	0x3e28e831	0.16494824
50	0x3e3e3043	0.18573098
51	0xbdac1b4c	-0.08403644
52	0x3e08a3f7	0.13343798
53	0x3dc3ec47	0.09566551
54	0x3e3382ed	0.17530413
55	0x3dce62c2	0.1007743
56	0x3e9d9525	0.3077785
57	0x3e845dab	0.25852713
58	0xbcc74ded	-0.02432915
59	0x3de3f61a	0.111309245
60	0x3e798c04	0.24369818
61	0x3e253d0a	0.16136566
62	0x3ddd7fa8	0.10815364
63	0xbc50e6a1	-0.012750299
64	0x3d7eb047	0.06217983
65	0x3d1136a8	0.035452515
66	0x3e06ee23	0.1317678
67	0xbdb17958	-0.086657226
68	0x3d491cfd	0.04909991
69	0x3de6a3aa	0.11261685
70	0x3d9579da	0.07298632
71	0xbba5317d	-0.0050413
72	0x3d75bbe6	0.059993647
73	0x3ca9f17d	0.020745033
74	0x3d835ac4	0.064137965
75	0x3dc5c88d	0.09657393
76	0x3cb0304a	0.021507401
77	0xbd5783c0	-0.05261588
78	0x3db37ff9	0.08764643
79	0x3dc5ffa2	0.09667899
80	0x3e8606ff	0.26177213
81	0x3e3b2b3d	0.18278213
82	0x3d26d020	0.040725827
83	0x3e5ed8f6	0.21762452

weight f4 [10, 84]
0	0x3c7fdbb5	0.015616347
1	0x3e010318	0.12598836
2	0xbe169428	-0.14704955
3	0x3d99391f	0.07481598
4	0xbda75b4d	-0.08171711
5	0xbe9ef7c9	-0.3104842
6	0x3df0c3a1	0.11756063
7	0x3bc89a9d	0.006121947
8	0xbe1c568f	-0.15267394
9	0xbe06b0ed	-0.1315343
10	0xbbe74a03	-0.0070583834
11	0x3daa0851	0.083023675
12	0x3e84563a	0.25847036
13	0xbdc60c05	-0.09670261
14	0x3de44662	0.11146237
15	0xbde860f7	-0.113466196
16	0xbe42c3a1	-0.19019939
17	0x3ca0512e	0.01956996
18	0x3857b2a6	5.1426374e-05
19	0xbcd6e574	-0.026232459
20	0xbe05d1fd	-0.13068385
21	0xbe0a443f	-0.13502596
22	0x3db81a2b	0.08989366
23	0xbd8c50a1	-0.06851316
24	0xbdcb48e0	-0.09926009
25	0xbe6247b6	-0.22097668
26	0xbd7997f3	-0.060935926
27	0x3e0ed61c	0.13948864
28	0x3e86b1ad	0.2630743
29	0x3d809a95	0.06279484
30	0xbe794f2a	-0.24346605
31	0x3e1260b7	0.14294706
32	0xbdb1381b	-0.086532794
33	0xbca15ab9	-0.01969658
34	0xbdd5a32a	-0.10431512
35	0xbd8fea00	-0.07027054
36	0x3ea4c245	0.32179466
37	0xbe201387	-0.15632449
38	0x3d09a694	0.033606127
39	0xbe42f868	-0.19040072
40	0xbdbe07d8	-0.0927884
41	0x3e128d65	0.1431175
42	0xbe793bbb	-0.24339192
43	0xbda043ca	-0.0782543
44	0xbd73f666	-0.059561156
45	0x3de06cab	0.10958227
46	0xbe0bbf78	-0.13647258
47	0x3da93abe	0.08263157
48	0xbead2fe3	-0.33825597
49	0xbe8d056f	-0.27543208
50	0x3e2f5fd0	0.17126393
51	0xbdac676d	-0.084181644
52	0x3e638291	0.22217776
53	0xbdae96a2	-0.08524825
54	0x3e39faee	0.18162128
55	0xbdde0102	-0.10840036
56	0xbe25a3f8	-0.1617583
57	0xbe804752	-0.25054413
58	0x3cbd6338	0.0231186
59	0x3e9c58b4	0.30536425
60	0xbde6b16e	-0.11264311
61	0xbd9670c8	-0.0734573
62	0xbe892171	-0.26783326
63	0x3de38cc6	0.11110835
64	0x3e2f9ab9	0.17148866
65	0xbde8d9f6	-0.11369698
66	0x3e5a6cb6	0.21330532
67	0x3d04b379	0.03239772
68	0xbda5c894	-0.08094898
69	0xbdf73fd6	-0.120727226
70	0x3da0233e	0.07819222
71	0x3da82bd9	0.08211488
72	0x3e66627b	0.22498505
73	0x3dba70e5	0.09103564
74	0x3aecedc1	0.0018076227
75	0x3b8c4735	0.0042809495
76	0xbcb7af2c	-0.022422396
77	0xbd2a0bf4	-0.041515306
78	0xbd884d3b	-0.066553555
79	0xbe64aae3	-0.22330813
80	0x3ec762d5	0.3894259
81	0x3e518249	0.20459856
82	0xbe2e8faa	-0.17046991
83	0x3e970d53	0.29502353
84	0x3dc98d35	0.09841386
85	0xbb840694	-0.0040291045
86	0xbd385ab1	-0.045008365
87	0x3ca5c880	0.020237207
88	0x3d8aebcb	0.06783255
89	0xbdf1b479	-0.118020006
90	0x3d5e7ddc	0.054319248
91	0x3da1d8bd	0.07902668
92	0xbd22e18e	-0.039765887
93	0x3d57db5e	0.05269944
94	0x3da9f4b3	0.08298626
95	0xbda388db	-0.079850875
96	0x3de0de23	0.10979869
97	0xbd67d78a	-0.05660204
98	0xbde19174	-0.11014071
99	0x3e396558	0.18105066
100	0x3e926721	0.28594306
101	0xbda48271	-0.08032692
102	0xbdafd903	-0.085863136
103	0xbdce07d4	-0.10060087
104	0xbe1b7f16	-0.15185198
105	0xbda5be41	-0.08092929
106	0xbde05561	-0.10953785
107	0x3d808c97	0.062768154
108	0x3c90574a	0.017619748
109	0x3eaa08e4	0.33209908
110	0xbbfd3763	-0.00772755
111	0x3e4ca379	0.19984235
112	0x3e2eb7be	0.1706228
113	0xbb91273a	-0.004429725
114	0xbe2614f3	-0.16218929
115	0x3e47019f	0.19434212
116	0xbc9ff972	-0.019528124
117	0xbe0dbe98	-0.13842237
118	0x3d225766	0.03963413
119	0x3da2a45f	0.079415075
120	0x3d122b3d	0.035685766
121	0xbea71096	-0.32629842
122	0xbdb1997e	-0.086718544
123	0x3ea53673	0.32268104
124	0xbcbc8dc4	-0.023016818
125	0xbcdfcb1d	-0.027318532
126	0xbdcda7c4	-0.100417644
127	0xbe04df44	-0.12975794
128	0xbde75f74	-0.11297503
129	0x3eb2ff8b	0.3496059
130	0x3d8a6b95	0.06758801
131	0xbe86fbb2	-0.26363903
132	0x3c908835	0.017643074
133	0x3e7eaba5	0.24870165
134	0x3c80223d	0.015641326
135	0xbdea9b2b	-0.11455377
136	0xbe7ed77b	-0.24886887
137	0x3d4cc065	0.04998817
138	0xbe6ee7d1	-0.23330618
139	0xbde71edb	-0.11285182
140	0xbea5339a	-0.3226593
141	0x3e8ab3ad	0.27090207
142	0xbcd38597	-0.025820537
143	0xbc89b926	-0.016811918
144	0x3e288462	0.1645675
145	0xbe10a6e0	-0.14126158
146	0x3d9c9097	0.07644766
147	0x3d07e4b0	0.033177078
148	0x3e706894	0.23477393
149	0xbd374fac	-0.044753715
150	0x3ccb9042	0.02484906
151	0x3dde2306	0.10846524
152	0xbdbe3060	-0.092865705
153	0xbe2b1271	-0.16706254
154	0xbd8275ec	-0.06370148
155	0xbd944ff6	-0.07241814
156	0x3e325974	0.17416936
157	0xbd454186	-0.04815819
158	0x3e0df8fd	0.13864513
159	0xbde7df4f	-0.113218896
160	0x3d9f6ad5	0.077840485
161	0x3ce94f2a	0.028480131
162	0xbdb7a751	-0.0896746
163	0x3e527bbc	0.20555013
164	0xbdcf0e74	-0.101101786
165	0x3d8424e8	0.06452352
166	0xbdc478b5	-0.095933355
167	0xbdae97f3	-0.08525076
168	0xbde63685	-0.112408675
169	0xbdad5a4c	-0.084644884
170	0x3e3f24c8	0.18666375
171	0x3b565f43	0.003271059
172	0x3c883e9c	0.016631417
173	0x3e8eac67	0.27865908
174	0xbeb07549	-0.3446448
175	0x3e254026	0.16137752
176	0xbd0fdf67	-0.035125162
177	0xbd6a0c7b	-0.05714081
178	0x3e37c0e9	0.17944683
179	0xbdca5dea	-0.09881194
180	0xbe76b16b	-0.24091117
181	0x3c4b5f16	0.012412807
182	0xbd973e38	-0.07384914
183	0x3ce23a67	0.027615739
184	0xbe4265aa	-0.18984094
185	0xbcda9b8a	-0.026685495
186	0x3c0da6b5	0.008645703
187	0xbd66c2b6	-0.056338035
188	0x3e9dd2de	0.3082494
189	0xbe5b1cd0	-0.2139771
190	0x3e09beb5	0.13451655
191	0x3e33b141	0.17548086
192	0xbcff87a9	-0.031192617
193	0xbe4dc6c4	-0.20095354
194	0xbd2d97c9	-0.04238108
195	0xbe7a2e90	-0.24431825
196	0xbce4e548	-0.027941361
197	0x3ce0e4bd	0.02745282
198	0xbe209bfb	-0.15684502
199	0xbe9a68ae	-0.3015799
200	0x3d98b1e2	0.074558035
201	0xbd52bab1	-0.051447574
202	0xbda6bfbf	-0.081420414
203	0xbe1cb818	-0.15304601
204	0x3df2de4f	0.11858808
205	0x3e605d7d	0.21910663
206	0x3d12ab54	0.035807922
207	0x3ebbd096	0.36682576
208	0xbdac4390	-0.08411324
209	0x3d4fb8bb	0.050713282
210	0x3d5a66b8	0.053320616
211	0x3d73538a	0.05940584
212	0xbb9ea990	-0.004841991
213	0xbe813355	-0.25234476
214	0xbe814375	-0.25246778
215	0x3edc8f2f	0.4307799
216	0x3dc3cfb2	0.09561099
217	0x3e6ce5df	0.23134564
218	0xbe59e869	-0.21280064
219	0x3d597171	0.0530867
220	0x3db557f8	0.08854669
221	0x3e5ceaa5	0.21573885
222	0xbd3d6f0a	-0.046248473
223	0x3e7a0f16	0.24419817
224	0xbe4f3f87	-0.20239078
225	0x3e97732e	0.29580063
226	0x3d589173	0.052873086
227	0x3d8492a9	0.06473286
228	0x3db57f68	0.088621914
229	0xbe260e8a	-0.16216484
230	0xbe0c83e5	-0.13722189
231	0xbd80a222	-0.062809244
232	0xbd4c224b	-0.04983739
233	0x3e0d2afc	0.13785928
234	0xbe85db77	-0.26144
235	0x3e00a36c	0.1256234
236	0xbe4722c8	-0.19446862
237	0xbe6ebeeb	-0.23315017
238	0xbdb7c545	-0.08973173
239	0xbddfd6d8	-0.1092965
240	0xbe18a12c	-0.14905232
241	0x3d91a34b	0.07111224
242	0xbd9d6efd	-0.07687185
243	0xbd9298e4	-0.07158068
244	0x3e10ed66	0.1415306
245	0x3d486505	0.048924465
246	0xbe0913d1	-0.13386466
247	0x3d853ad3	0.065053605
248	0x3dce27e6	0.10066204
249	0x3d1bc99d	0.03803407
250	0x3e3e56bd	0.18587776
251	0x3e1593f9	0.14607228
252	0xbe0ef71c	-0.13961452
253	0x3dd5aee7	0.104337506
254	0x3e85eca8	0.26157117
255	0x3d59128b	0.0529962

bias f4 [10]
0	0xbe19630c	-0.1497919
1	0x3de106b6	0.10987608
2	0x3eba840d	0.36428872
3	0x3e461d0b	0.19347017
4	0xbdab67f4	-0.08369437
5	0x3e0178ff	0.12643813
6	0xbe1b9fd7	-0.15197693
7	0xbe961f1b	-0.29320607
8	0x3d87d33e	0.06632088
9	0xbe3a8c3e	-0.1821756
